#loc0 = loc(unknown)
module attributes {tf.versions = {bad_consumers = [], min_consumer = 12 : i32, producer = 1286 : i32}, tf_saved_model.semantics} {
  "tf_saved_model.global_tensor"() {is_mutable, sym_name = "__sm_node23__layer-0.kernel", tf_saved_model.exported_names = [], type = tensor<3x3x3x32xf32>, value = dense<"…"> : tensor<3x3x3x32xf32>} : () -> () loc(#loc0)
  "tf_saved_model.global_tensor"() {is_mutable, sym_name = "__sm_node24__layer-0.bias", tf_saved_model.exported_names = [], type = tensor<32xf32>, value = dense<0.000000e+00> : tensor<32xf32>} : () -> () loc(#loc0)
  "tf_saved_model.global_tensor"() {is_mutable, sym_name = "__sm_node38__layer-2.kernel", tf_saved_model.exported_names = [], type = tensor<3x3x32x64xf32>, value = dense<"…"> : tensor<3x3x32x64xf32>} : () -> () loc(#loc0)
  "tf_saved_model.global_tensor"() {is_mutable, sym_name = "__sm_node39__layer-2.bias", tf_saved_model.exported_names = [], type = tensor<64xf32>, value = dense<0.000000e+00> : tensor<64xf32>} : () -> () loc(#loc0)
  "tf_saved_model.global_tensor"() {is_mutable, sym_name = "__sm_node53__layer-4.kernel", tf_saved_model.exported_names = [], type = tensor<3x3x64x64xf32>, value = dense<"…"> : tensor<3x3x64x64xf32>} : () -> () loc(#loc0)
  "tf_saved_model.global_tensor"() {is_mutable, sym_name = "__sm_node54__layer-4.bias", tf_saved_model.exported_names = [], type = tensor<64xf32>, value = dense<0.000000e+00> : tensor<64xf32>} : () -> () loc(#loc0)
  "tf_saved_model.global_tensor"() {is_mutable, sym_name = "__sm_node68__layer-6.kernel", tf_saved_model.exported_names = [], type = tensor<1024x64xf32>, value = dense<"…"> : tensor<1024x64xf32>} : () -> () loc(#loc0)
  "tf_saved_model.global_tensor"() {is_mutable, sym_name = "__sm_node69__layer-6.bias", tf_saved_model.exported_names = [], type = tensor<64xf32>, value = dense<0.000000e+00> : tensor<64xf32>} : () -> () loc(#loc0)
  "tf_saved_model.global_tensor"() {is_mutable, sym_name = "__sm_node76__layer-7.kernel", tf_saved_model.exported_names = [], type = tensor<64x10xf32>, value = dense<"…"> : tensor<64x10xf32>} : () -> () loc(#loc0)
  "tf_saved_model.global_tensor"() {is_mutable, sym_name = "__sm_node77__layer-7.bias", tf_saved_model.exported_names = [], type = tensor<10xf32>, value = dense<0.000000e+00> : tensor<10xf32>} : () -> () loc(#loc0)
  func.func private @__inference__wrapped_model_1970(%arg0: tensor<?x32x32x3xf32> {tf._user_specified_name = "conv2d_input"} loc(unknown), %arg1: tensor<!tf_type.resource> loc(unknown), %arg2: tensor<!tf_type.resource> loc(unknown), %arg3: tensor<!tf_type.resource> loc(unknown), %arg4: tensor<!tf_type.resource> loc(unknown), %arg5: tensor<!tf_type.resource> loc(unknown), %arg6: tensor<!tf_type.resource> loc(unknown), %arg7: tensor<!tf_type.resource> loc(unknown), %arg8: tensor<!tf_type.resource> loc(unknown), %arg9: tensor<!tf_type.resource> loc(unknown), %arg10: tensor<!tf_type.resource> loc(unknown)) -> tensor<?x10xf32> attributes {tf._construction_context = "kEagerRuntime", tf._input_shapes = [#tf_type.shape<?x32x32x3>, #tf_type.shape<>, #tf_type.shape<>, #tf_type.shape<>, #tf_type.shape<>, #tf_type.shape<>, #tf_type.shape<>, #tf_type.shape<>, #tf_type.shape<>, #tf_type.shape<>, #tf_type.shape<>], tf.signature.is_stateful} {
    %0 = tf_executor.graph {
      %outputs, %control = tf_executor.island wraps "tf.Const"() {device = "", value = dense<[-1, 1024]> : tensor<2xi32>} : () -> tensor<2xi32> loc(#loc1)
      %outputs_0, %control_1 = tf_executor.island wraps "tf.ReadVariableOp"(%arg4) {device = ""} : (tensor<!tf_type.resource>) -> tensor<64xf32> loc(#loc2)
      %outputs_2, %control_3 = tf_executor.island wraps "tf.ReadVariableOp"(%arg3) {device = ""} : (tensor<!tf_type.resource>) -> tensor<3x3x32x64xf32> loc(#loc3)
      %outputs_4, %control_5 = tf_executor.island wraps "tf.ReadVariableOp"(%arg6) {device = ""} : (tensor<!tf_type.resource>) -> tensor<64xf32> loc(#loc4)
      %outputs_6, %control_7 = tf_executor.island wraps "tf.ReadVariableOp"(%arg5) {device = ""} : (tensor<!tf_type.resource>) -> tensor<3x3x64x64xf32> loc(#loc5)
      %outputs_8, %control_9 = tf_executor.island wraps "tf.ReadVariableOp"(%arg2) {device = ""} : (tensor<!tf_type.resource>) -> tensor<32xf32> loc(#loc6)
      %outputs_10, %control_11 = tf_executor.island wraps "tf.ReadVariableOp"(%arg1) {device = ""} : (tensor<!tf_type.resource>) -> tensor<3x3x3x32xf32> loc(#loc7)
      %outputs_12, %control_13 = tf_executor.island wraps "tf.Conv2D"(%arg0, %outputs_10) {data_format = "NHWC", device = "", dilations = [1, 1, 1, 1], explicit_paddings = [], padding = "VALID", strides = [1, 1, 1, 1], use_cudnn_on_gpu = true} : (tensor<?x32x32x3xf32>, tensor<3x3x3x32xf32>) -> tensor<?x30x30x32xf32> loc(#loc8)
      %outputs_14, %control_15 = tf_executor.island wraps "tf.BiasAdd"(%outputs_12, %outputs_8) {data_format = "NHWC", device = ""} : (tensor<?x30x30x32xf32>, tensor<32xf32>) -> tensor<?x30x30x32xf32> loc(#loc9)
      %outputs_16, %control_17 = tf_executor.island wraps "tf.Relu"(%outputs_14) {device = ""} : (tensor<?x30x30x32xf32>) -> tensor<?x30x30x32xf32> loc(#loc10)
      %outputs_18, %control_19 = tf_executor.island wraps "tf.MaxPool"(%outputs_16) {data_format = "NHWC", device = "", explicit_paddings = [], ksize = [1, 2, 2, 1], padding = "VALID", strides = [1, 2, 2, 1]} : (tensor<?x30x30x32xf32>) -> tensor<?x15x15x32xf32> loc(#loc11)
      %outputs_20, %control_21 = tf_executor.island wraps "tf.Conv2D"(%outputs_18, %outputs_2) {data_format = "NHWC", device = "", dilations = [1, 1, 1, 1], explicit_paddings = [], padding = "VALID", strides = [1, 1, 1, 1], use_cudnn_on_gpu = true} : (tensor<?x15x15x32xf32>, tensor<3x3x32x64xf32>) -> tensor<?x13x13x64xf32> loc(#loc12)
      %outputs_22, %control_23 = tf_executor.island wraps "tf.BiasAdd"(%outputs_20, %outputs_0) {data_format = "NHWC", device = ""} : (tensor<?x13x13x64xf32>, tensor<64xf32>) -> tensor<?x13x13x64xf32> loc(#loc13)
      %outputs_24, %control_25 = tf_executor.island wraps "tf.Relu"(%outputs_22) {device = ""} : (tensor<?x13x13x64xf32>) -> tensor<?x13x13x64xf32> loc(#loc14)
      %outputs_26, %control_27 = tf_executor.island wraps "tf.MaxPool"(%outputs_24) {data_format = "NHWC", device = "", explicit_paddings = [], ksize = [1, 2, 2, 1], padding = "VALID", strides = [1, 2, 2, 1]} : (tensor<?x13x13x64xf32>) -> tensor<?x6x6x64xf32> loc(#loc15)
      %outputs_28, %control_29 = tf_executor.island wraps "tf.Conv2D"(%outputs_26, %outputs_6) {data_format = "NHWC", device = "", dilations = [1, 1, 1, 1], explicit_paddings = [], padding = "VALID", strides = [1, 1, 1, 1], use_cudnn_on_gpu = true} : (tensor<?x6x6x64xf32>, tensor<3x3x64x64xf32>) -> tensor<?x4x4x64xf32> loc(#loc16)
      %outputs_30, %control_31 = tf_executor.island wraps "tf.BiasAdd"(%outputs_28, %outputs_4) {data_format = "NHWC", device = ""} : (tensor<?x4x4x64xf32>, tensor<64xf32>) -> tensor<?x4x4x64xf32> loc(#loc17)
      %outputs_32, %control_33 = tf_executor.island wraps "tf.Relu"(%outputs_30) {device = ""} : (tensor<?x4x4x64xf32>) -> tensor<?x4x4x64xf32> loc(#loc18)
      %outputs_34, %control_35 = tf_executor.island wraps "tf.Reshape"(%outputs_32, %outputs) {device = ""} : (tensor<?x4x4x64xf32>, tensor<2xi32>) -> tensor<?x1024xf32> loc(#loc19)
      %outputs_36, %control_37 = tf_executor.island wraps "tf.ReadVariableOp"(%arg10) {device = ""} : (tensor<!tf_type.resource>) -> tensor<10xf32> loc(#loc20)
      %outputs_38, %control_39 = tf_executor.island wraps "tf.ReadVariableOp"(%arg9) {device = ""} : (tensor<!tf_type.resource>) -> tensor<64x10xf32> loc(#loc21)
      %outputs_40, %control_41 = tf_executor.island wraps "tf.ReadVariableOp"(%arg8) {device = ""} : (tensor<!tf_type.resource>) -> tensor<64xf32> loc(#loc22)
      %outputs_42, %control_43 = tf_executor.island wraps "tf.ReadVariableOp"(%arg7) {device = ""} : (tensor<!tf_type.resource>) -> tensor<1024x64xf32> loc(#loc23)
      %control_44 = tf_executor.island(%control_11, %control_9, %control_3, %control_1, %control_7, %control_5, %control_43, %control_41, %control_39, %control_37) wraps "tf.NoOp"() {_acd_function_control_output = true, device = ""} : () -> () loc(#loc24)
      %outputs_45, %control_46 = tf_executor.island wraps "tf.MatMul"(%outputs_34, %outputs_42) {device = "", transpose_a = false, transpose_b = false} : (tensor<?x1024xf32>, tensor<1024x64xf32>) -> tensor<?x64xf32> loc(#loc25)
      %outputs_47, %control_48 = tf_executor.island wraps "tf.BiasAdd"(%outputs_45, %outputs_40) {data_format = "NHWC", device = ""} : (tensor<?x64xf32>, tensor<64xf32>) -> tensor<?x64xf32> loc(#loc26)
      %outputs_49, %control_50 = tf_executor.island wraps "tf.Relu"(%outputs_47) {device = ""} : (tensor<?x64xf32>) -> tensor<?x64xf32> loc(#loc27)
      %outputs_51, %control_52 = tf_executor.island wraps "tf.MatMul"(%outputs_49, %outputs_38) {device = "", transpose_a = false, transpose_b = false} : (tensor<?x64xf32>, tensor<64x10xf32>) -> tensor<?x10xf32> loc(#loc28)
      %outputs_53, %control_54 = tf_executor.island wraps "tf.BiasAdd"(%outputs_51, %outputs_36) {data_format = "NHWC", device = ""} : (tensor<?x10xf32>, tensor<10xf32>) -> tensor<?x10xf32> loc(#loc29)
      %outputs_55, %control_56 = tf_executor.island(%control_44) wraps "tf.Identity"(%outputs_53) {device = ""} : (tensor<?x10xf32>) -> tensor<?x10xf32> loc(#loc30)
      tf_executor.fetch %outputs_55, %control_11, %control_9, %control_3, %control_1, %control_7, %control_5, %control_43, %control_41, %control_39, %control_37 : tensor<?x10xf32>, !tf_executor.control, !tf_executor.control, !tf_executor.control, !tf_executor.control, !tf_executor.control, !tf_executor.control, !tf_executor.control, !tf_executor.control, !tf_executor.control, !tf_executor.control loc(#loc0)
    } loc(#loc0)
    return %0 : tensor<?x10xf32> loc(#loc0)
  } loc(#loc0)
  func.func private @__inference_conv2d_1_layer_call_and_return_conditional_losses_2570(%arg0: tensor<?x15x15x32xf32> {tf._user_specified_name = "inputs"} loc(unknown), %arg1: tensor<!tf_type.resource> loc(unknown), %arg2: tensor<!tf_type.resource> loc(unknown)) -> tensor<?x13x13x64xf32> attributes {tf._construction_context = "kEagerRuntime", tf._input_shapes = [#tf_type.shape<?x15x15x32>, #tf_type.shape<>, #tf_type.shape<>], tf.signature.is_stateful} {
    %0 = tf_executor.graph {
      %outputs, %control = tf_executor.island wraps "tf.ReadVariableOp"(%arg2) {device = ""} : (tensor<!tf_type.resource>) -> tensor<64xf32> loc(#loc31)
      %outputs_0, %control_1 = tf_executor.island wraps "tf.ReadVariableOp"(%arg1) {device = ""} : (tensor<!tf_type.resource>) -> tensor<3x3x32x64xf32> loc(#loc32)
      %control_2 = tf_executor.island(%control_1, %control) wraps "tf.NoOp"() {_acd_function_control_output = true, device = ""} : () -> () loc(#loc33)
      %outputs_3, %control_4 = tf_executor.island wraps "tf.Conv2D"(%arg0, %outputs_0) {data_format = "NHWC", device = "", dilations = [1, 1, 1, 1], explicit_paddings = [], padding = "VALID", strides = [1, 1, 1, 1], use_cudnn_on_gpu = true} : (tensor<?x15x15x32xf32>, tensor<3x3x32x64xf32>) -> tensor<?x13x13x64xf32> loc(#loc34)
      %outputs_5, %control_6 = tf_executor.island wraps "tf.BiasAdd"(%outputs_3, %outputs) {data_format = "NHWC", device = ""} : (tensor<?x13x13x64xf32>, tensor<64xf32>) -> tensor<?x13x13x64xf32> loc(#loc35)
      %outputs_7, %control_8 = tf_executor.island wraps "tf.Relu"(%outputs_5) {device = ""} : (tensor<?x13x13x64xf32>) -> tensor<?x13x13x64xf32> loc(#loc36)
      %outputs_9, %control_10 = tf_executor.island(%control_2) wraps "tf.Identity"(%outputs_7) {device = ""} : (tensor<?x13x13x64xf32>) -> tensor<?x13x13x64xf32> loc(#loc37)
      tf_executor.fetch %outputs_9, %control_1, %control : tensor<?x13x13x64xf32>, !tf_executor.control, !tf_executor.control loc(#loc0)
    } loc(#loc0)
    return %0 : tensor<?x13x13x64xf32> loc(#loc0)
  } loc(#loc0)
  func.func private @__inference_conv2d_1_layer_call_and_return_conditional_losses_7840(%arg0: tensor<?x15x15x32xf32> {tf._user_specified_name = "inputs"} loc(unknown), %arg1: tensor<!tf_type.resource> loc(unknown), %arg2: tensor<!tf_type.resource> loc(unknown)) -> tensor<?x13x13x64xf32> attributes {tf._construction_context = "kEagerRuntime", tf._input_shapes = [#tf_type.shape<?x15x15x32>, #tf_type.shape<>, #tf_type.shape<>], tf.signature.is_stateful} {
    %0 = tf_executor.graph {
      %outputs, %control = tf_executor.island wraps "tf.ReadVariableOp"(%arg2) {device = ""} : (tensor<!tf_type.resource>) -> tensor<64xf32> loc(#loc38)
      %outputs_0, %control_1 = tf_executor.island wraps "tf.ReadVariableOp"(%arg1) {device = ""} : (tensor<!tf_type.resource>) -> tensor<3x3x32x64xf32> loc(#loc39)
      %control_2 = tf_executor.island(%control_1, %control) wraps "tf.NoOp"() {_acd_function_control_output = true, device = ""} : () -> () loc(#loc40)
      %outputs_3, %control_4 = tf_executor.island wraps "tf.Conv2D"(%arg0, %outputs_0) {data_format = "NHWC", device = "", dilations = [1, 1, 1, 1], explicit_paddings = [], padding = "VALID", strides = [1, 1, 1, 1], use_cudnn_on_gpu = true} : (tensor<?x15x15x32xf32>, tensor<3x3x32x64xf32>) -> tensor<?x13x13x64xf32> loc(#loc41)
      %outputs_5, %control_6 = tf_executor.island wraps "tf.BiasAdd"(%outputs_3, %outputs) {data_format = "NHWC", device = ""} : (tensor<?x13x13x64xf32>, tensor<64xf32>) -> tensor<?x13x13x64xf32> loc(#loc42)
      %outputs_7, %control_8 = tf_executor.island wraps "tf.Relu"(%outputs_5) {device = ""} : (tensor<?x13x13x64xf32>) -> tensor<?x13x13x64xf32> loc(#loc43)
      %outputs_9, %control_10 = tf_executor.island(%control_2) wraps "tf.Identity"(%outputs_7) {device = ""} : (tensor<?x13x13x64xf32>) -> tensor<?x13x13x64xf32> loc(#loc44)
      tf_executor.fetch %outputs_9, %control_1, %control : tensor<?x13x13x64xf32>, !tf_executor.control, !tf_executor.control loc(#loc0)
    } loc(#loc0)
    return %0 : tensor<?x13x13x64xf32> loc(#loc0)
  } loc(#loc0)
  func.func private @__inference_conv2d_1_layer_call_fn_7730(%arg0: tensor<?x15x15x32xf32> {tf._user_specified_name = "inputs"} loc(unknown), %arg1: tensor<!tf_type.resource> loc(unknown), %arg2: tensor<!tf_type.resource> loc(unknown)) -> tensor<?x?x?x?xf32> attributes {tf._construction_context = "kEagerRuntime", tf._input_shapes = [#tf_type.shape<?x15x15x32>, #tf_type.shape<>, #tf_type.shape<>], tf.signature.is_stateful} {
    %0 = tf_executor.graph {
      %outputs, %control = tf_executor.island wraps "tf.StatefulPartitionedCall"(%arg0, %arg1, %arg2) {_collective_manager_ids = [], _read_only_resource_inputs = [1, 2], config = "", config_proto = "\0A\07\0A\03CPU\10\01\0A\07\0A\03GPU\10\022\07*\030,1J\008\01\82\01\00", device = "", executor_type = "", f = @__inference_conv2d_1_layer_call_and_return_conditional_losses_2570} : (tensor<?x15x15x32xf32>, tensor<!tf_type.resource>, tensor<!tf_type.resource>) -> tensor<?x?x?x?xf32> loc(#loc45)
      %control_0 = tf_executor.island(%control) wraps "tf.NoOp"() {_acd_function_control_output = true, device = ""} : () -> () loc(#loc46)
      %outputs_1, %control_2 = tf_executor.island(%control_0) wraps "tf.Identity"(%outputs) {device = ""} : (tensor<?x?x?x?xf32>) -> tensor<?x?x?x?xf32> loc(#loc47)
      tf_executor.fetch %outputs_1, %control : tensor<?x?x?x?xf32>, !tf_executor.control loc(#loc0)
    } loc(#loc0)
    return %0 : tensor<?x?x?x?xf32> loc(#loc0)
  } loc(#loc0)
  func.func private @__inference_conv2d_2_layer_call_and_return_conditional_losses_2750(%arg0: tensor<?x6x6x64xf32> {tf._user_specified_name = "inputs"} loc(unknown), %arg1: tensor<!tf_type.resource> loc(unknown), %arg2: tensor<!tf_type.resource> loc(unknown)) -> tensor<?x4x4x64xf32> attributes {tf._construction_context = "kEagerRuntime", tf._input_shapes = [#tf_type.shape<?x6x6x64>, #tf_type.shape<>, #tf_type.shape<>], tf.signature.is_stateful} {
    %0 = tf_executor.graph {
      %outputs, %control = tf_executor.island wraps "tf.ReadVariableOp"(%arg2) {device = ""} : (tensor<!tf_type.resource>) -> tensor<64xf32> loc(#loc48)
      %outputs_0, %control_1 = tf_executor.island wraps "tf.ReadVariableOp"(%arg1) {device = ""} : (tensor<!tf_type.resource>) -> tensor<3x3x64x64xf32> loc(#loc49)
      %control_2 = tf_executor.island(%control_1, %control) wraps "tf.NoOp"() {_acd_function_control_output = true, device = ""} : () -> () loc(#loc50)
      %outputs_3, %control_4 = tf_executor.island wraps "tf.Conv2D"(%arg0, %outputs_0) {data_format = "NHWC", device = "", dilations = [1, 1, 1, 1], explicit_paddings = [], padding = "VALID", strides = [1, 1, 1, 1], use_cudnn_on_gpu = true} : (tensor<?x6x6x64xf32>, tensor<3x3x64x64xf32>) -> tensor<?x4x4x64xf32> loc(#loc51)
      %outputs_5, %control_6 = tf_executor.island wraps "tf.BiasAdd"(%outputs_3, %outputs) {data_format = "NHWC", device = ""} : (tensor<?x4x4x64xf32>, tensor<64xf32>) -> tensor<?x4x4x64xf32> loc(#loc52)
      %outputs_7, %control_8 = tf_executor.island wraps "tf.Relu"(%outputs_5) {device = ""} : (tensor<?x4x4x64xf32>) -> tensor<?x4x4x64xf32> loc(#loc53)
      %outputs_9, %control_10 = tf_executor.island(%control_2) wraps "tf.Identity"(%outputs_7) {device = ""} : (tensor<?x4x4x64xf32>) -> tensor<?x4x4x64xf32> loc(#loc54)
      tf_executor.fetch %outputs_9, %control_1, %control : tensor<?x4x4x64xf32>, !tf_executor.control, !tf_executor.control loc(#loc0)
    } loc(#loc0)
    return %0 : tensor<?x4x4x64xf32> loc(#loc0)
  } loc(#loc0)
  func.func private @__inference_conv2d_2_layer_call_and_return_conditional_losses_8140(%arg0: tensor<?x6x6x64xf32> {tf._user_specified_name = "inputs"} loc(unknown), %arg1: tensor<!tf_type.resource> loc(unknown), %arg2: tensor<!tf_type.resource> loc(unknown)) -> tensor<?x4x4x64xf32> attributes {tf._construction_context = "kEagerRuntime", tf._input_shapes = [#tf_type.shape<?x6x6x64>, #tf_type.shape<>, #tf_type.shape<>], tf.signature.is_stateful} {
    %0 = tf_executor.graph {
      %outputs, %control = tf_executor.island wraps "tf.ReadVariableOp"(%arg2) {device = ""} : (tensor<!tf_type.resource>) -> tensor<64xf32> loc(#loc55)
      %outputs_0, %control_1 = tf_executor.island wraps "tf.ReadVariableOp"(%arg1) {device = ""} : (tensor<!tf_type.resource>) -> tensor<3x3x64x64xf32> loc(#loc56)
      %control_2 = tf_executor.island(%control_1, %control) wraps "tf.NoOp"() {_acd_function_control_output = true, device = ""} : () -> () loc(#loc57)
      %outputs_3, %control_4 = tf_executor.island wraps "tf.Conv2D"(%arg0, %outputs_0) {data_format = "NHWC", device = "", dilations = [1, 1, 1, 1], explicit_paddings = [], padding = "VALID", strides = [1, 1, 1, 1], use_cudnn_on_gpu = true} : (tensor<?x6x6x64xf32>, tensor<3x3x64x64xf32>) -> tensor<?x4x4x64xf32> loc(#loc58)
      %outputs_5, %control_6 = tf_executor.island wraps "tf.BiasAdd"(%outputs_3, %outputs) {data_format = "NHWC", device = ""} : (tensor<?x4x4x64xf32>, tensor<64xf32>) -> tensor<?x4x4x64xf32> loc(#loc59)
      %outputs_7, %control_8 = tf_executor.island wraps "tf.Relu"(%outputs_5) {device = ""} : (tensor<?x4x4x64xf32>) -> tensor<?x4x4x64xf32> loc(#loc60)
      %outputs_9, %control_10 = tf_executor.island(%control_2) wraps "tf.Identity"(%outputs_7) {device = ""} : (tensor<?x4x4x64xf32>) -> tensor<?x4x4x64xf32> loc(#loc61)
      tf_executor.fetch %outputs_9, %control_1, %control : tensor<?x4x4x64xf32>, !tf_executor.control, !tf_executor.control loc(#loc0)
    } loc(#loc0)
    return %0 : tensor<?x4x4x64xf32> loc(#loc0)
  } loc(#loc0)
  func.func private @__inference_conv2d_2_layer_call_fn_8030(%arg0: tensor<?x6x6x64xf32> {tf._user_specified_name = "inputs"} loc(unknown), %arg1: tensor<!tf_type.resource> loc(unknown), %arg2: tensor<!tf_type.resource> loc(unknown)) -> tensor<?x?x?x?xf32> attributes {tf._construction_context = "kEagerRuntime", tf._input_shapes = [#tf_type.shape<?x6x6x64>, #tf_type.shape<>, #tf_type.shape<>], tf.signature.is_stateful} {
    %0 = tf_executor.graph {
      %outputs, %control = tf_executor.island wraps "tf.StatefulPartitionedCall"(%arg0, %arg1, %arg2) {_collective_manager_ids = [], _read_only_resource_inputs = [1, 2], config = "", config_proto = "\0A\07\0A\03CPU\10\01\0A\07\0A\03GPU\10\022\07*\030,1J\008\01\82\01\00", device = "", executor_type = "", f = @__inference_conv2d_2_layer_call_and_return_conditional_losses_2750} : (tensor<?x6x6x64xf32>, tensor<!tf_type.resource>, tensor<!tf_type.resource>) -> tensor<?x?x?x?xf32> loc(#loc62)
      %control_0 = tf_executor.island(%control) wraps "tf.NoOp"() {_acd_function_control_output = true, device = ""} : () -> () loc(#loc63)
      %outputs_1, %control_2 = tf_executor.island(%control_0) wraps "tf.Identity"(%outputs) {device = ""} : (tensor<?x?x?x?xf32>) -> tensor<?x?x?x?xf32> loc(#loc64)
      tf_executor.fetch %outputs_1, %control : tensor<?x?x?x?xf32>, !tf_executor.control loc(#loc0)
    } loc(#loc0)
    return %0 : tensor<?x?x?x?xf32> loc(#loc0)
  } loc(#loc0)
  func.func private @__inference_conv2d_layer_call_and_return_conditional_losses_2390(%arg0: tensor<?x32x32x3xf32> {tf._user_specified_name = "inputs"} loc(unknown), %arg1: tensor<!tf_type.resource> loc(unknown), %arg2: tensor<!tf_type.resource> loc(unknown)) -> tensor<?x30x30x32xf32> attributes {tf._construction_context = "kEagerRuntime", tf._input_shapes = [#tf_type.shape<?x32x32x3>, #tf_type.shape<>, #tf_type.shape<>], tf.signature.is_stateful} {
    %0 = tf_executor.graph {
      %outputs, %control = tf_executor.island wraps "tf.ReadVariableOp"(%arg2) {device = ""} : (tensor<!tf_type.resource>) -> tensor<32xf32> loc(#loc65)
      %outputs_0, %control_1 = tf_executor.island wraps "tf.ReadVariableOp"(%arg1) {device = ""} : (tensor<!tf_type.resource>) -> tensor<3x3x3x32xf32> loc(#loc66)
      %control_2 = tf_executor.island(%control_1, %control) wraps "tf.NoOp"() {_acd_function_control_output = true, device = ""} : () -> () loc(#loc67)
      %outputs_3, %control_4 = tf_executor.island wraps "tf.Conv2D"(%arg0, %outputs_0) {data_format = "NHWC", device = "", dilations = [1, 1, 1, 1], explicit_paddings = [], padding = "VALID", strides = [1, 1, 1, 1], use_cudnn_on_gpu = true} : (tensor<?x32x32x3xf32>, tensor<3x3x3x32xf32>) -> tensor<?x30x30x32xf32> loc(#loc68)
      %outputs_5, %control_6 = tf_executor.island wraps "tf.BiasAdd"(%outputs_3, %outputs) {data_format = "NHWC", device = ""} : (tensor<?x30x30x32xf32>, tensor<32xf32>) -> tensor<?x30x30x32xf32> loc(#loc69)
      %outputs_7, %control_8 = tf_executor.island wraps "tf.Relu"(%outputs_5) {device = ""} : (tensor<?x30x30x32xf32>) -> tensor<?x30x30x32xf32> loc(#loc70)
      %outputs_9, %control_10 = tf_executor.island(%control_2) wraps "tf.Identity"(%outputs_7) {device = ""} : (tensor<?x30x30x32xf32>) -> tensor<?x30x30x32xf32> loc(#loc71)
      tf_executor.fetch %outputs_9, %control_1, %control : tensor<?x30x30x32xf32>, !tf_executor.control, !tf_executor.control loc(#loc0)
    } loc(#loc0)
    return %0 : tensor<?x30x30x32xf32> loc(#loc0)
  } loc(#loc0)
  func.func private @__inference_conv2d_layer_call_and_return_conditional_losses_7540(%arg0: tensor<?x32x32x3xf32> {tf._user_specified_name = "inputs"} loc(unknown), %arg1: tensor<!tf_type.resource> loc(unknown), %arg2: tensor<!tf_type.resource> loc(unknown)) -> tensor<?x30x30x32xf32> attributes {tf._construction_context = "kEagerRuntime", tf._input_shapes = [#tf_type.shape<?x32x32x3>, #tf_type.shape<>, #tf_type.shape<>], tf.signature.is_stateful} {
    %0 = tf_executor.graph {
      %outputs, %control = tf_executor.island wraps "tf.ReadVariableOp"(%arg2) {device = ""} : (tensor<!tf_type.resource>) -> tensor<32xf32> loc(#loc72)
      %outputs_0, %control_1 = tf_executor.island wraps "tf.ReadVariableOp"(%arg1) {device = ""} : (tensor<!tf_type.resource>) -> tensor<3x3x3x32xf32> loc(#loc73)
      %control_2 = tf_executor.island(%control_1, %control) wraps "tf.NoOp"() {_acd_function_control_output = true, device = ""} : () -> () loc(#loc74)
      %outputs_3, %control_4 = tf_executor.island wraps "tf.Conv2D"(%arg0, %outputs_0) {data_format = "NHWC", device = "", dilations = [1, 1, 1, 1], explicit_paddings = [], padding = "VALID", strides = [1, 1, 1, 1], use_cudnn_on_gpu = true} : (tensor<?x32x32x3xf32>, tensor<3x3x3x32xf32>) -> tensor<?x30x30x32xf32> loc(#loc75)
      %outputs_5, %control_6 = tf_executor.island wraps "tf.BiasAdd"(%outputs_3, %outputs) {data_format = "NHWC", device = ""} : (tensor<?x30x30x32xf32>, tensor<32xf32>) -> tensor<?x30x30x32xf32> loc(#loc76)
      %outputs_7, %control_8 = tf_executor.island wraps "tf.Relu"(%outputs_5) {device = ""} : (tensor<?x30x30x32xf32>) -> tensor<?x30x30x32xf32> loc(#loc77)
      %outputs_9, %control_10 = tf_executor.island(%control_2) wraps "tf.Identity"(%outputs_7) {device = ""} : (tensor<?x30x30x32xf32>) -> tensor<?x30x30x32xf32> loc(#loc78)
      tf_executor.fetch %outputs_9, %control_1, %control : tensor<?x30x30x32xf32>, !tf_executor.control, !tf_executor.control loc(#loc0)
    } loc(#loc0)
    return %0 : tensor<?x30x30x32xf32> loc(#loc0)
  } loc(#loc0)
  func.func private @__inference_conv2d_layer_call_fn_7430(%arg0: tensor<?x32x32x3xf32> {tf._user_specified_name = "inputs"} loc(unknown), %arg1: tensor<!tf_type.resource> loc(unknown), %arg2: tensor<!tf_type.resource> loc(unknown)) -> tensor<?x?x?x?xf32> attributes {tf._construction_context = "kEagerRuntime", tf._input_shapes = [#tf_type.shape<?x32x32x3>, #tf_type.shape<>, #tf_type.shape<>], tf.signature.is_stateful} {
    %0 = tf_executor.graph {
      %outputs, %control = tf_executor.island wraps "tf.StatefulPartitionedCall"(%arg0, %arg1, %arg2) {_collective_manager_ids = [], _read_only_resource_inputs = [1, 2], config = "", config_proto = "\0A\07\0A\03CPU\10\01\0A\07\0A\03GPU\10\022\07*\030,1J\008\01\82\01\00", device = "", executor_type = "", f = @__inference_conv2d_layer_call_and_return_conditional_losses_2390} : (tensor<?x32x32x3xf32>, tensor<!tf_type.resource>, tensor<!tf_type.resource>) -> tensor<?x?x?x?xf32> loc(#loc79)
      %control_0 = tf_executor.island(%control) wraps "tf.NoOp"() {_acd_function_control_output = true, device = ""} : () -> () loc(#loc80)
      %outputs_1, %control_2 = tf_executor.island(%control_0) wraps "tf.Identity"(%outputs) {device = ""} : (tensor<?x?x?x?xf32>) -> tensor<?x?x?x?xf32> loc(#loc81)
      tf_executor.fetch %outputs_1, %control : tensor<?x?x?x?xf32>, !tf_executor.control loc(#loc0)
    } loc(#loc0)
    return %0 : tensor<?x?x?x?xf32> loc(#loc0)
  } loc(#loc0)
  func.func private @__inference_dense_1_layer_call_and_return_conditional_losses_3160(%arg0: tensor<?x64xf32> {tf._user_specified_name = "inputs"} loc(unknown), %arg1: tensor<!tf_type.resource> loc(unknown), %arg2: tensor<!tf_type.resource> loc(unknown)) -> tensor<?x10xf32> attributes {tf._construction_context = "kEagerRuntime", tf._input_shapes = [#tf_type.shape<?x64>, #tf_type.shape<>, #tf_type.shape<>], tf.signature.is_stateful} {
    %0 = tf_executor.graph {
      %outputs, %control = tf_executor.island wraps "tf.ReadVariableOp"(%arg2) {device = ""} : (tensor<!tf_type.resource>) -> tensor<10xf32> loc(#loc82)
      %outputs_0, %control_1 = tf_executor.island wraps "tf.ReadVariableOp"(%arg1) {device = ""} : (tensor<!tf_type.resource>) -> tensor<64x10xf32> loc(#loc83)
      %outputs_2, %control_3 = tf_executor.island wraps "tf.MatMul"(%arg0, %outputs_0) {device = "", transpose_a = false, transpose_b = false} : (tensor<?x64xf32>, tensor<64x10xf32>) -> tensor<?x10xf32> loc(#loc84)
      %outputs_4, %control_5 = tf_executor.island wraps "tf.BiasAdd"(%outputs_2, %outputs) {data_format = "NHWC", device = ""} : (tensor<?x10xf32>, tensor<10xf32>) -> tensor<?x10xf32> loc(#loc85)
      %control_6 = tf_executor.island(%control_1, %control) wraps "tf.NoOp"() {_acd_function_control_output = true, device = ""} : () -> () loc(#loc86)
      %outputs_7, %control_8 = tf_executor.island(%control_6) wraps "tf.Identity"(%outputs_4) {device = ""} : (tensor<?x10xf32>) -> tensor<?x10xf32> loc(#loc87)
      tf_executor.fetch %outputs_7, %control_1, %control : tensor<?x10xf32>, !tf_executor.control, !tf_executor.control loc(#loc0)
    } loc(#loc0)
    return %0 : tensor<?x10xf32> loc(#loc0)
  } loc(#loc0)
  func.func private @__inference_dense_1_layer_call_and_return_conditional_losses_8640(%arg0: tensor<?x64xf32> {tf._user_specified_name = "inputs"} loc(unknown), %arg1: tensor<!tf_type.resource> loc(unknown), %arg2: tensor<!tf_type.resource> loc(unknown)) -> tensor<?x10xf32> attributes {tf._construction_context = "kEagerRuntime", tf._input_shapes = [#tf_type.shape<?x64>, #tf_type.shape<>, #tf_type.shape<>], tf.signature.is_stateful} {
    %0 = tf_executor.graph {
      %outputs, %control = tf_executor.island wraps "tf.ReadVariableOp"(%arg2) {device = ""} : (tensor<!tf_type.resource>) -> tensor<10xf32> loc(#loc88)
      %outputs_0, %control_1 = tf_executor.island wraps "tf.ReadVariableOp"(%arg1) {device = ""} : (tensor<!tf_type.resource>) -> tensor<64x10xf32> loc(#loc89)
      %outputs_2, %control_3 = tf_executor.island wraps "tf.MatMul"(%arg0, %outputs_0) {device = "", transpose_a = false, transpose_b = false} : (tensor<?x64xf32>, tensor<64x10xf32>) -> tensor<?x10xf32> loc(#loc90)
      %outputs_4, %control_5 = tf_executor.island wraps "tf.BiasAdd"(%outputs_2, %outputs) {data_format = "NHWC", device = ""} : (tensor<?x10xf32>, tensor<10xf32>) -> tensor<?x10xf32> loc(#loc91)
      %control_6 = tf_executor.island(%control_1, %control) wraps "tf.NoOp"() {_acd_function_control_output = true, device = ""} : () -> () loc(#loc92)
      %outputs_7, %control_8 = tf_executor.island(%control_6) wraps "tf.Identity"(%outputs_4) {device = ""} : (tensor<?x10xf32>) -> tensor<?x10xf32> loc(#loc93)
      tf_executor.fetch %outputs_7, %control_1, %control : tensor<?x10xf32>, !tf_executor.control, !tf_executor.control loc(#loc0)
    } loc(#loc0)
    return %0 : tensor<?x10xf32> loc(#loc0)
  } loc(#loc0)
  func.func private @__inference_dense_1_layer_call_fn_8540(%arg0: tensor<?x64xf32> {tf._user_specified_name = "inputs"} loc(unknown), %arg1: tensor<!tf_type.resource> loc(unknown), %arg2: tensor<!tf_type.resource> loc(unknown)) -> tensor<?x?xf32> attributes {tf._construction_context = "kEagerRuntime", tf._input_shapes = [#tf_type.shape<?x64>, #tf_type.shape<>, #tf_type.shape<>], tf.signature.is_stateful} {
    %0 = tf_executor.graph {
      %outputs, %control = tf_executor.island wraps "tf.StatefulPartitionedCall"(%arg0, %arg1, %arg2) {_collective_manager_ids = [], _read_only_resource_inputs = [1, 2], config = "", config_proto = "\0A\07\0A\03CPU\10\01\0A\07\0A\03GPU\10\022\07*\030,1J\008\01\82\01\00", device = "", executor_type = "", f = @__inference_dense_1_layer_call_and_return_conditional_losses_3160} : (tensor<?x64xf32>, tensor<!tf_type.resource>, tensor<!tf_type.resource>) -> tensor<?x?xf32> loc(#loc94)
      %control_0 = tf_executor.island(%control) wraps "tf.NoOp"() {_acd_function_control_output = true, device = ""} : () -> () loc(#loc95)
      %outputs_1, %control_2 = tf_executor.island(%control_0) wraps "tf.Identity"(%outputs) {device = ""} : (tensor<?x?xf32>) -> tensor<?x?xf32> loc(#loc96)
      tf_executor.fetch %outputs_1, %control : tensor<?x?xf32>, !tf_executor.control loc(#loc0)
    } loc(#loc0)
    return %0 : tensor<?x?xf32> loc(#loc0)
  } loc(#loc0)
  func.func private @__inference_dense_layer_call_and_return_conditional_losses_3000(%arg0: tensor<?x1024xf32> {tf._user_specified_name = "inputs"} loc(unknown), %arg1: tensor<!tf_type.resource> loc(unknown), %arg2: tensor<!tf_type.resource> loc(unknown)) -> tensor<?x64xf32> attributes {tf._construction_context = "kEagerRuntime", tf._input_shapes = [#tf_type.shape<?x1024>, #tf_type.shape<>, #tf_type.shape<>], tf.signature.is_stateful} {
    %0 = tf_executor.graph {
      %outputs, %control = tf_executor.island wraps "tf.ReadVariableOp"(%arg2) {device = ""} : (tensor<!tf_type.resource>) -> tensor<64xf32> loc(#loc97)
      %outputs_0, %control_1 = tf_executor.island wraps "tf.ReadVariableOp"(%arg1) {device = ""} : (tensor<!tf_type.resource>) -> tensor<1024x64xf32> loc(#loc98)
      %outputs_2, %control_3 = tf_executor.island wraps "tf.MatMul"(%arg0, %outputs_0) {device = "", transpose_a = false, transpose_b = false} : (tensor<?x1024xf32>, tensor<1024x64xf32>) -> tensor<?x64xf32> loc(#loc99)
      %outputs_4, %control_5 = tf_executor.island wraps "tf.BiasAdd"(%outputs_2, %outputs) {data_format = "NHWC", device = ""} : (tensor<?x64xf32>, tensor<64xf32>) -> tensor<?x64xf32> loc(#loc100)
      %outputs_6, %control_7 = tf_executor.island wraps "tf.Relu"(%outputs_4) {device = ""} : (tensor<?x64xf32>) -> tensor<?x64xf32> loc(#loc101)
      %control_8 = tf_executor.island(%control_1, %control) wraps "tf.NoOp"() {_acd_function_control_output = true, device = ""} : () -> () loc(#loc102)
      %outputs_9, %control_10 = tf_executor.island(%control_8) wraps "tf.Identity"(%outputs_6) {device = ""} : (tensor<?x64xf32>) -> tensor<?x64xf32> loc(#loc103)
      tf_executor.fetch %outputs_9, %control_1, %control : tensor<?x64xf32>, !tf_executor.control, !tf_executor.control loc(#loc0)
    } loc(#loc0)
    return %0 : tensor<?x64xf32> loc(#loc0)
  } loc(#loc0)
  func.func private @__inference_dense_layer_call_and_return_conditional_losses_8450(%arg0: tensor<?x1024xf32> {tf._user_specified_name = "inputs"} loc(unknown), %arg1: tensor<!tf_type.resource> loc(unknown), %arg2: tensor<!tf_type.resource> loc(unknown)) -> tensor<?x64xf32> attributes {tf._construction_context = "kEagerRuntime", tf._input_shapes = [#tf_type.shape<?x1024>, #tf_type.shape<>, #tf_type.shape<>], tf.signature.is_stateful} {
    %0 = tf_executor.graph {
      %outputs, %control = tf_executor.island wraps "tf.ReadVariableOp"(%arg2) {device = ""} : (tensor<!tf_type.resource>) -> tensor<64xf32> loc(#loc104)
      %outputs_0, %control_1 = tf_executor.island wraps "tf.ReadVariableOp"(%arg1) {device = ""} : (tensor<!tf_type.resource>) -> tensor<1024x64xf32> loc(#loc105)
      %outputs_2, %control_3 = tf_executor.island wraps "tf.MatMul"(%arg0, %outputs_0) {device = "", transpose_a = false, transpose_b = false} : (tensor<?x1024xf32>, tensor<1024x64xf32>) -> tensor<?x64xf32> loc(#loc106)
      %outputs_4, %control_5 = tf_executor.island wraps "tf.BiasAdd"(%outputs_2, %outputs) {data_format = "NHWC", device = ""} : (tensor<?x64xf32>, tensor<64xf32>) -> tensor<?x64xf32> loc(#loc107)
      %outputs_6, %control_7 = tf_executor.island wraps "tf.Relu"(%outputs_4) {device = ""} : (tensor<?x64xf32>) -> tensor<?x64xf32> loc(#loc108)
      %control_8 = tf_executor.island(%control_1, %control) wraps "tf.NoOp"() {_acd_function_control_output = true, device = ""} : () -> () loc(#loc109)
      %outputs_9, %control_10 = tf_executor.island(%control_8) wraps "tf.Identity"(%outputs_6) {device = ""} : (tensor<?x64xf32>) -> tensor<?x64xf32> loc(#loc110)
      tf_executor.fetch %outputs_9, %control_1, %control : tensor<?x64xf32>, !tf_executor.control, !tf_executor.control loc(#loc0)
    } loc(#loc0)
    return %0 : tensor<?x64xf32> loc(#loc0)
  } loc(#loc0)
  func.func private @__inference_dense_layer_call_fn_8340(%arg0: tensor<?x1024xf32> {tf._user_specified_name = "inputs"} loc(unknown), %arg1: tensor<!tf_type.resource> loc(unknown), %arg2: tensor<!tf_type.resource> loc(unknown)) -> tensor<?x?xf32> attributes {tf._construction_context = "kEagerRuntime", tf._input_shapes = [#tf_type.shape<?x1024>, #tf_type.shape<>, #tf_type.shape<>], tf.signature.is_stateful} {
    %0 = tf_executor.graph {
      %outputs, %control = tf_executor.island wraps "tf.StatefulPartitionedCall"(%arg0, %arg1, %arg2) {_collective_manager_ids = [], _read_only_resource_inputs = [1, 2], config = "", config_proto = "\0A\07\0A\03CPU\10\01\0A\07\0A\03GPU\10\022\07*\030,1J\008\01\82\01\00", device = "", executor_type = "", f = @__inference_dense_layer_call_and_return_conditional_losses_3000} : (tensor<?x1024xf32>, tensor<!tf_type.resource>, tensor<!tf_type.resource>) -> tensor<?x?xf32> loc(#loc111)
      %control_0 = tf_executor.island(%control) wraps "tf.NoOp"() {_acd_function_control_output = true, device = ""} : () -> () loc(#loc112)
      %outputs_1, %control_2 = tf_executor.island(%control_0) wraps "tf.Identity"(%outputs) {device = ""} : (tensor<?x?xf32>) -> tensor<?x?xf32> loc(#loc113)
      tf_executor.fetch %outputs_1, %control : tensor<?x?xf32>, !tf_executor.control loc(#loc0)
    } loc(#loc0)
    return %0 : tensor<?x?xf32> loc(#loc0)
  } loc(#loc0)
  func.func private @__inference_flatten_layer_call_and_return_conditional_losses_2870(%arg0: tensor<?x4x4x64xf32> {tf._user_specified_name = "inputs"} loc(unknown)) -> tensor<?x1024xf32> attributes {tf._construction_context = "kEagerRuntime", tf._input_shapes = [#tf_type.shape<?x4x4x64>]} {
    %0 = tf_executor.graph {
      %outputs, %control = tf_executor.island wraps "tf.Const"() {device = "", value = dense<[-1, 1024]> : tensor<2xi32>} : () -> tensor<2xi32> loc(#loc114)
      %outputs_0, %control_1 = tf_executor.island wraps "tf.Reshape"(%arg0, %outputs) {device = ""} : (tensor<?x4x4x64xf32>, tensor<2xi32>) -> tensor<?x1024xf32> loc(#loc115)
      %outputs_2, %control_3 = tf_executor.island wraps "tf.Identity"(%outputs_0) {device = ""} : (tensor<?x1024xf32>) -> tensor<?x1024xf32> loc(#loc116)
      tf_executor.fetch %outputs_2 : tensor<?x1024xf32> loc(#loc0)
    } loc(#loc0)
    return %0 : tensor<?x1024xf32> loc(#loc0)
  } loc(#loc0)
  func.func private @__inference_flatten_layer_call_and_return_conditional_losses_8250(%arg0: tensor<?x4x4x64xf32> {tf._user_specified_name = "inputs"} loc(unknown)) -> tensor<?x1024xf32> attributes {tf._construction_context = "kEagerRuntime", tf._input_shapes = [#tf_type.shape<?x4x4x64>]} {
    %0 = tf_executor.graph {
      %outputs, %control = tf_executor.island wraps "tf.Const"() {device = "", value = dense<[-1, 1024]> : tensor<2xi32>} : () -> tensor<2xi32> loc(#loc117)
      %outputs_0, %control_1 = tf_executor.island wraps "tf.Reshape"(%arg0, %outputs) {device = ""} : (tensor<?x4x4x64xf32>, tensor<2xi32>) -> tensor<?x1024xf32> loc(#loc118)
      %outputs_2, %control_3 = tf_executor.island wraps "tf.Identity"(%outputs_0) {device = ""} : (tensor<?x1024xf32>) -> tensor<?x1024xf32> loc(#loc119)
      tf_executor.fetch %outputs_2 : tensor<?x1024xf32> loc(#loc0)
    } loc(#loc0)
    return %0 : tensor<?x1024xf32> loc(#loc0)
  } loc(#loc0)
  func.func private @__inference_flatten_layer_call_fn_8190(%arg0: tensor<?x4x4x64xf32> {tf._user_specified_name = "inputs"} loc(unknown)) -> tensor<?x1024xf32> attributes {tf._construction_context = "kEagerRuntime", tf._input_shapes = [#tf_type.shape<?x4x4x64>]} {
    %0 = tf_executor.graph {
      %outputs, %control = tf_executor.island wraps "tf.PartitionedCall"(%arg0) {_collective_manager_ids = [], _read_only_resource_inputs = [], config = "", config_proto = "\0A\07\0A\03CPU\10\01\0A\07\0A\03GPU\10\022\07*\030,1J\008\01\82\01\00", device = "", executor_type = "", f = @__inference_flatten_layer_call_and_return_conditional_losses_2870} : (tensor<?x4x4x64xf32>) -> tensor<?x1024xf32> loc(#loc120)
      %outputs_0, %control_1 = tf_executor.island wraps "tf.Identity"(%outputs) {device = ""} : (tensor<?x1024xf32>) -> tensor<?x1024xf32> loc(#loc121)
      tf_executor.fetch %outputs_0 : tensor<?x1024xf32> loc(#loc0)
    } loc(#loc0)
    return %0 : tensor<?x1024xf32> loc(#loc0)
  } loc(#loc0)
  func.func private @__inference_max_pooling2d_1_layer_call_and_return_conditional_losses_2180(%arg0: tensor<?x?x?x?xf32> {tf._user_specified_name = "inputs"} loc(unknown)) -> tensor<?x?x?x?xf32> attributes {tf._construction_context = "kEagerRuntime", tf._input_shapes = [#tf_type.shape<?x?x?x?>]} {
    %0 = tf_executor.graph {
      %outputs, %control = tf_executor.island wraps "tf.MaxPool"(%arg0) {data_format = "NHWC", device = "", explicit_paddings = [], ksize = [1, 2, 2, 1], padding = "VALID", strides = [1, 2, 2, 1]} : (tensor<?x?x?x?xf32>) -> tensor<?x?x?x?xf32> loc(#loc122)
      %outputs_0, %control_1 = tf_executor.island wraps "tf.Identity"(%outputs) {device = ""} : (tensor<?x?x?x?xf32>) -> tensor<?x?x?x?xf32> loc(#loc123)
      tf_executor.fetch %outputs_0 : tensor<?x?x?x?xf32> loc(#loc0)
    } loc(#loc0)
    return %0 : tensor<?x?x?x?xf32> loc(#loc0)
  } loc(#loc0)
  func.func private @__inference_max_pooling2d_1_layer_call_and_return_conditional_losses_7940(%arg0: tensor<?x?x?x?xf32> {tf._user_specified_name = "inputs"} loc(unknown)) -> tensor<?x?x?x?xf32> attributes {tf._construction_context = "kEagerRuntime", tf._input_shapes = [#tf_type.shape<?x?x?x?>]} {
    %0 = tf_executor.graph {
      %outputs, %control = tf_executor.island wraps "tf.MaxPool"(%arg0) {data_format = "NHWC", device = "", explicit_paddings = [], ksize = [1, 2, 2, 1], padding = "VALID", strides = [1, 2, 2, 1]} : (tensor<?x?x?x?xf32>) -> tensor<?x?x?x?xf32> loc(#loc124)
      %outputs_0, %control_1 = tf_executor.island wraps "tf.Identity"(%outputs) {device = ""} : (tensor<?x?x?x?xf32>) -> tensor<?x?x?x?xf32> loc(#loc125)
      tf_executor.fetch %outputs_0 : tensor<?x?x?x?xf32> loc(#loc0)
    } loc(#loc0)
    return %0 : tensor<?x?x?x?xf32> loc(#loc0)
  } loc(#loc0)
  func.func private @__inference_max_pooling2d_1_layer_call_fn_7890(%arg0: tensor<?x?x?x?xf32> {tf._user_specified_name = "inputs"} loc(unknown)) -> tensor<?x?x?x?xf32> attributes {tf._construction_context = "kEagerRuntime", tf._input_shapes = [#tf_type.shape<?x?x?x?>]} {
    %0 = tf_executor.graph {
      %outputs, %control = tf_executor.island wraps "tf.PartitionedCall"(%arg0) {_collective_manager_ids = [], _read_only_resource_inputs = [], config = "", config_proto = "\0A\07\0A\03CPU\10\01\0A\07\0A\03GPU\10\022\07*\030,1J\008\01\82\01\00", device = "", executor_type = "", f = @__inference_max_pooling2d_1_layer_call_and_return_conditional_losses_2180} : (tensor<?x?x?x?xf32>) -> tensor<?x?x?x?xf32> loc(#loc126)
      %outputs_0, %control_1 = tf_executor.island wraps "tf.Identity"(%outputs) {device = ""} : (tensor<?x?x?x?xf32>) -> tensor<?x?x?x?xf32> loc(#loc127)
      tf_executor.fetch %outputs_0 : tensor<?x?x?x?xf32> loc(#loc0)
    } loc(#loc0)
    return %0 : tensor<?x?x?x?xf32> loc(#loc0)
  } loc(#loc0)
  func.func private @__inference_max_pooling2d_layer_call_and_return_conditional_losses_2060(%arg0: tensor<?x?x?x?xf32> {tf._user_specified_name = "inputs"} loc(unknown)) -> tensor<?x?x?x?xf32> attributes {tf._construction_context = "kEagerRuntime", tf._input_shapes = [#tf_type.shape<?x?x?x?>]} {
    %0 = tf_executor.graph {
      %outputs, %control = tf_executor.island wraps "tf.MaxPool"(%arg0) {data_format = "NHWC", device = "", explicit_paddings = [], ksize = [1, 2, 2, 1], padding = "VALID", strides = [1, 2, 2, 1]} : (tensor<?x?x?x?xf32>) -> tensor<?x?x?x?xf32> loc(#loc128)
      %outputs_0, %control_1 = tf_executor.island wraps "tf.Identity"(%outputs) {device = ""} : (tensor<?x?x?x?xf32>) -> tensor<?x?x?x?xf32> loc(#loc129)
      tf_executor.fetch %outputs_0 : tensor<?x?x?x?xf32> loc(#loc0)
    } loc(#loc0)
    return %0 : tensor<?x?x?x?xf32> loc(#loc0)
  } loc(#loc0)
  func.func private @__inference_max_pooling2d_layer_call_and_return_conditional_losses_7640(%arg0: tensor<?x?x?x?xf32> {tf._user_specified_name = "inputs"} loc(unknown)) -> tensor<?x?x?x?xf32> attributes {tf._construction_context = "kEagerRuntime", tf._input_shapes = [#tf_type.shape<?x?x?x?>]} {
    %0 = tf_executor.graph {
      %outputs, %control = tf_executor.island wraps "tf.MaxPool"(%arg0) {data_format = "NHWC", device = "", explicit_paddings = [], ksize = [1, 2, 2, 1], padding = "VALID", strides = [1, 2, 2, 1]} : (tensor<?x?x?x?xf32>) -> tensor<?x?x?x?xf32> loc(#loc130)
      %outputs_0, %control_1 = tf_executor.island wraps "tf.Identity"(%outputs) {device = ""} : (tensor<?x?x?x?xf32>) -> tensor<?x?x?x?xf32> loc(#loc131)
      tf_executor.fetch %outputs_0 : tensor<?x?x?x?xf32> loc(#loc0)
    } loc(#loc0)
    return %0 : tensor<?x?x?x?xf32> loc(#loc0)
  } loc(#loc0)
  func.func private @__inference_max_pooling2d_layer_call_fn_7590(%arg0: tensor<?x?x?x?xf32> {tf._user_specified_name = "inputs"} loc(unknown)) -> tensor<?x?x?x?xf32> attributes {tf._construction_context = "kEagerRuntime", tf._input_shapes = [#tf_type.shape<?x?x?x?>]} {
    %0 = tf_executor.graph {
      %outputs, %control = tf_executor.island wraps "tf.PartitionedCall"(%arg0) {_collective_manager_ids = [], _read_only_resource_inputs = [], config = "", config_proto = "\0A\07\0A\03CPU\10\01\0A\07\0A\03GPU\10\022\07*\030,1J\008\01\82\01\00", device = "", executor_type = "", f = @__inference_max_pooling2d_layer_call_and_return_conditional_losses_2060} : (tensor<?x?x?x?xf32>) -> tensor<?x?x?x?xf32> loc(#loc132)
      %outputs_0, %control_1 = tf_executor.island wraps "tf.Identity"(%outputs) {device = ""} : (tensor<?x?x?x?xf32>) -> tensor<?x?x?x?xf32> loc(#loc133)
      tf_executor.fetch %outputs_0 : tensor<?x?x?x?xf32> loc(#loc0)
    } loc(#loc0)
    return %0 : tensor<?x?x?x?xf32> loc(#loc0)
  } loc(#loc0)
  func.func private @__inference_sequential_layer_call_and_return_conditional_losses_3230(%arg0: tensor<?x32x32x3xf32> {tf._user_specified_name = "inputs"} loc(unknown), %arg1: tensor<!tf_type.resource> loc(unknown), %arg2: tensor<!tf_type.resource> loc(unknown), %arg3: tensor<!tf_type.resource> loc(unknown), %arg4: tensor<!tf_type.resource> loc(unknown), %arg5: tensor<!tf_type.resource> loc(unknown), %arg6: tensor<!tf_type.resource> loc(unknown), %arg7: tensor<!tf_type.resource> loc(unknown), %arg8: tensor<!tf_type.resource> loc(unknown), %arg9: tensor<!tf_type.resource> loc(unknown), %arg10: tensor<!tf_type.resource> loc(unknown)) -> tensor<?x?xf32> attributes {tf._construction_context = "kEagerRuntime", tf._input_shapes = [#tf_type.shape<?x32x32x3>, #tf_type.shape<>, #tf_type.shape<>, #tf_type.shape<>, #tf_type.shape<>, #tf_type.shape<>, #tf_type.shape<>, #tf_type.shape<>, #tf_type.shape<>, #tf_type.shape<>, #tf_type.shape<>], tf.signature.is_stateful} {
    %0 = tf_executor.graph {
      %outputs, %control = tf_executor.island wraps "tf.StatefulPartitionedCall"(%arg0, %arg1, %arg2) {_collective_manager_ids = [], _read_only_resource_inputs = [1, 2], config = "", config_proto = "\0A\07\0A\03CPU\10\01\0A\07\0A\03GPU\10\022\07*\030,1J\008\01\82\01\00", device = "", executor_type = "", f = @__inference_conv2d_layer_call_and_return_conditional_losses_2390} : (tensor<?x32x32x3xf32>, tensor<!tf_type.resource>, tensor<!tf_type.resource>) -> tensor<?x?x?x?xf32> loc(#loc134)
      %outputs_0, %control_1 = tf_executor.island wraps "tf.PartitionedCall"(%outputs) {_collective_manager_ids = [], _read_only_resource_inputs = [], config = "", config_proto = "\0A\07\0A\03CPU\10\01\0A\07\0A\03GPU\10\022\07*\030,1J\008\01\82\01\00", device = "", executor_type = "", f = @__inference_max_pooling2d_layer_call_and_return_conditional_losses_2060} : (tensor<?x?x?x?xf32>) -> tensor<?x?x?x?xf32> loc(#loc135)
      %outputs_2, %control_3 = tf_executor.island wraps "tf.StatefulPartitionedCall"(%outputs_0, %arg3, %arg4) {_collective_manager_ids = [], _read_only_resource_inputs = [1, 2], config = "", config_proto = "\0A\07\0A\03CPU\10\01\0A\07\0A\03GPU\10\022\07*\030,1J\008\01\82\01\00", device = "", executor_type = "", f = @__inference_conv2d_1_layer_call_and_return_conditional_losses_2570} : (tensor<?x?x?x?xf32>, tensor<!tf_type.resource>, tensor<!tf_type.resource>) -> tensor<?x?x?x?xf32> loc(#loc136)
      %outputs_4, %control_5 = tf_executor.island wraps "tf.PartitionedCall"(%outputs_2) {_collective_manager_ids = [], _read_only_resource_inputs = [], config = "", config_proto = "\0A\07\0A\03CPU\10\01\0A\07\0A\03GPU\10\022\07*\030,1J\008\01\82\01\00", device = "", executor_type = "", f = @__inference_max_pooling2d_1_layer_call_and_return_conditional_losses_2180} : (tensor<?x?x?x?xf32>) -> tensor<?x?x?x?xf32> loc(#loc137)
      %outputs_6, %control_7 = tf_executor.island wraps "tf.StatefulPartitionedCall"(%outputs_4, %arg5, %arg6) {_collective_manager_ids = [], _read_only_resource_inputs = [1, 2], config = "", config_proto = "\0A\07\0A\03CPU\10\01\0A\07\0A\03GPU\10\022\07*\030,1J\008\01\82\01\00", device = "", executor_type = "", f = @__inference_conv2d_2_layer_call_and_return_conditional_losses_2750} : (tensor<?x?x?x?xf32>, tensor<!tf_type.resource>, tensor<!tf_type.resource>) -> tensor<?x?x?x?xf32> loc(#loc138)
      %outputs_8, %control_9 = tf_executor.island wraps "tf.PartitionedCall"(%outputs_6) {_collective_manager_ids = [], _read_only_resource_inputs = [], config = "", config_proto = "\0A\07\0A\03CPU\10\01\0A\07\0A\03GPU\10\022\07*\030,1J\008\01\82\01\00", device = "", executor_type = "", f = @__inference_flatten_layer_call_and_return_conditional_losses_2870} : (tensor<?x?x?x?xf32>) -> tensor<?x1024xf32> loc(#loc139)
      %outputs_10, %control_11 = tf_executor.island wraps "tf.StatefulPartitionedCall"(%outputs_8, %arg7, %arg8) {_collective_manager_ids = [], _read_only_resource_inputs = [1, 2], config = "", config_proto = "\0A\07\0A\03CPU\10\01\0A\07\0A\03GPU\10\022\07*\030,1J\008\01\82\01\00", device = "", executor_type = "", f = @__inference_dense_layer_call_and_return_conditional_losses_3000} : (tensor<?x1024xf32>, tensor<!tf_type.resource>, tensor<!tf_type.resource>) -> tensor<?x?xf32> loc(#loc140)
      %outputs_12, %control_13 = tf_executor.island wraps "tf.StatefulPartitionedCall"(%outputs_10, %arg9, %arg10) {_collective_manager_ids = [], _read_only_resource_inputs = [1, 2], config = "", config_proto = "\0A\07\0A\03CPU\10\01\0A\07\0A\03GPU\10\022\07*\030,1J\008\01\82\01\00", device = "", executor_type = "", f = @__inference_dense_1_layer_call_and_return_conditional_losses_3160} : (tensor<?x?xf32>, tensor<!tf_type.resource>, tensor<!tf_type.resource>) -> tensor<?x?xf32> loc(#loc141)
      %control_14 = tf_executor.island(%control, %control_3, %control_7, %control_11, %control_13) wraps "tf.NoOp"() {_acd_function_control_output = true, device = ""} : () -> () loc(#loc142)
      %outputs_15, %control_16 = tf_executor.island(%control_14) wraps "tf.Identity"(%outputs_12) {device = ""} : (tensor<?x?xf32>) -> tensor<?x?xf32> loc(#loc143)
      tf_executor.fetch %outputs_15, %control, %control_3, %control_7, %control_11, %control_13 : tensor<?x?xf32>, !tf_executor.control, !tf_executor.control, !tf_executor.control, !tf_executor.control, !tf_executor.control loc(#loc0)
    } loc(#loc0)
    return %0 : tensor<?x?xf32> loc(#loc0)
  } loc(#loc0)
  func.func private @__inference_sequential_layer_call_and_return_conditional_losses_4610(%arg0: tensor<?x32x32x3xf32> {tf._user_specified_name = "inputs"} loc(unknown), %arg1: tensor<!tf_type.resource> loc(unknown), %arg2: tensor<!tf_type.resource> loc(unknown), %arg3: tensor<!tf_type.resource> loc(unknown), %arg4: tensor<!tf_type.resource> loc(unknown), %arg5: tensor<!tf_type.resource> loc(unknown), %arg6: tensor<!tf_type.resource> loc(unknown), %arg7: tensor<!tf_type.resource> loc(unknown), %arg8: tensor<!tf_type.resource> loc(unknown), %arg9: tensor<!tf_type.resource> loc(unknown), %arg10: tensor<!tf_type.resource> loc(unknown)) -> tensor<?x?xf32> attributes {tf._construction_context = "kEagerRuntime", tf._input_shapes = [#tf_type.shape<?x32x32x3>, #tf_type.shape<>, #tf_type.shape<>, #tf_type.shape<>, #tf_type.shape<>, #tf_type.shape<>, #tf_type.shape<>, #tf_type.shape<>, #tf_type.shape<>, #tf_type.shape<>, #tf_type.shape<>], tf.signature.is_stateful} {
    %0 = tf_executor.graph {
      %outputs, %control = tf_executor.island wraps "tf.StatefulPartitionedCall"(%arg0, %arg1, %arg2) {_collective_manager_ids = [], _read_only_resource_inputs = [1, 2], config = "", config_proto = "\0A\07\0A\03CPU\10\01\0A\07\0A\03GPU\10\022\07*\030,1J\008\01\82\01\00", device = "", executor_type = "", f = @__inference_conv2d_layer_call_and_return_conditional_losses_2390} : (tensor<?x32x32x3xf32>, tensor<!tf_type.resource>, tensor<!tf_type.resource>) -> tensor<?x?x?x?xf32> loc(#loc144)
      %outputs_0, %control_1 = tf_executor.island wraps "tf.PartitionedCall"(%outputs) {_collective_manager_ids = [], _read_only_resource_inputs = [], config = "", config_proto = "\0A\07\0A\03CPU\10\01\0A\07\0A\03GPU\10\022\07*\030,1J\008\01\82\01\00", device = "", executor_type = "", f = @__inference_max_pooling2d_layer_call_and_return_conditional_losses_2060} : (tensor<?x?x?x?xf32>) -> tensor<?x?x?x?xf32> loc(#loc145)
      %outputs_2, %control_3 = tf_executor.island wraps "tf.StatefulPartitionedCall"(%outputs_0, %arg3, %arg4) {_collective_manager_ids = [], _read_only_resource_inputs = [1, 2], config = "", config_proto = "\0A\07\0A\03CPU\10\01\0A\07\0A\03GPU\10\022\07*\030,1J\008\01\82\01\00", device = "", executor_type = "", f = @__inference_conv2d_1_layer_call_and_return_conditional_losses_2570} : (tensor<?x?x?x?xf32>, tensor<!tf_type.resource>, tensor<!tf_type.resource>) -> tensor<?x?x?x?xf32> loc(#loc146)
      %outputs_4, %control_5 = tf_executor.island wraps "tf.PartitionedCall"(%outputs_2) {_collective_manager_ids = [], _read_only_resource_inputs = [], config = "", config_proto = "\0A\07\0A\03CPU\10\01\0A\07\0A\03GPU\10\022\07*\030,1J\008\01\82\01\00", device = "", executor_type = "", f = @__inference_max_pooling2d_1_layer_call_and_return_conditional_losses_2180} : (tensor<?x?x?x?xf32>) -> tensor<?x?x?x?xf32> loc(#loc147)
      %outputs_6, %control_7 = tf_executor.island wraps "tf.StatefulPartitionedCall"(%outputs_4, %arg5, %arg6) {_collective_manager_ids = [], _read_only_resource_inputs = [1, 2], config = "", config_proto = "\0A\07\0A\03CPU\10\01\0A\07\0A\03GPU\10\022\07*\030,1J\008\01\82\01\00", device = "", executor_type = "", f = @__inference_conv2d_2_layer_call_and_return_conditional_losses_2750} : (tensor<?x?x?x?xf32>, tensor<!tf_type.resource>, tensor<!tf_type.resource>) -> tensor<?x?x?x?xf32> loc(#loc148)
      %outputs_8, %control_9 = tf_executor.island wraps "tf.PartitionedCall"(%outputs_6) {_collective_manager_ids = [], _read_only_resource_inputs = [], config = "", config_proto = "\0A\07\0A\03CPU\10\01\0A\07\0A\03GPU\10\022\07*\030,1J\008\01\82\01\00", device = "", executor_type = "", f = @__inference_flatten_layer_call_and_return_conditional_losses_2870} : (tensor<?x?x?x?xf32>) -> tensor<?x1024xf32> loc(#loc149)
      %outputs_10, %control_11 = tf_executor.island wraps "tf.StatefulPartitionedCall"(%outputs_8, %arg7, %arg8) {_collective_manager_ids = [], _read_only_resource_inputs = [1, 2], config = "", config_proto = "\0A\07\0A\03CPU\10\01\0A\07\0A\03GPU\10\022\07*\030,1J\008\01\82\01\00", device = "", executor_type = "", f = @__inference_dense_layer_call_and_return_conditional_losses_3000} : (tensor<?x1024xf32>, tensor<!tf_type.resource>, tensor<!tf_type.resource>) -> tensor<?x?xf32> loc(#loc150)
      %outputs_12, %control_13 = tf_executor.island wraps "tf.StatefulPartitionedCall"(%outputs_10, %arg9, %arg10) {_collective_manager_ids = [], _read_only_resource_inputs = [1, 2], config = "", config_proto = "\0A\07\0A\03CPU\10\01\0A\07\0A\03GPU\10\022\07*\030,1J\008\01\82\01\00", device = "", executor_type = "", f = @__inference_dense_1_layer_call_and_return_conditional_losses_3160} : (tensor<?x?xf32>, tensor<!tf_type.resource>, tensor<!tf_type.resource>) -> tensor<?x?xf32> loc(#loc151)
      %control_14 = tf_executor.island(%control, %control_3, %control_7, %control_11, %control_13) wraps "tf.NoOp"() {_acd_function_control_output = true, device = ""} : () -> () loc(#loc152)
      %outputs_15, %control_16 = tf_executor.island(%control_14) wraps "tf.Identity"(%outputs_12) {device = ""} : (tensor<?x?xf32>) -> tensor<?x?xf32> loc(#loc153)
      tf_executor.fetch %outputs_15, %control, %control_3, %control_7, %control_11, %control_13 : tensor<?x?xf32>, !tf_executor.control, !tf_executor.control, !tf_executor.control, !tf_executor.control, !tf_executor.control loc(#loc0)
    } loc(#loc0)
    return %0 : tensor<?x?xf32> loc(#loc0)
  } loc(#loc0)
  func.func private @__inference_sequential_layer_call_and_return_conditional_losses_5410(%arg0: tensor<?x32x32x3xf32> {tf._user_specified_name = "conv2d_input"} loc(unknown), %arg1: tensor<!tf_type.resource> loc(unknown), %arg2: tensor<!tf_type.resource> loc(unknown), %arg3: tensor<!tf_type.resource> loc(unknown), %arg4: tensor<!tf_type.resource> loc(unknown), %arg5: tensor<!tf_type.resource> loc(unknown), %arg6: tensor<!tf_type.resource> loc(unknown), %arg7: tensor<!tf_type.resource> loc(unknown), %arg8: tensor<!tf_type.resource> loc(unknown), %arg9: tensor<!tf_type.resource> loc(unknown), %arg10: tensor<!tf_type.resource> loc(unknown)) -> tensor<?x?xf32> attributes {tf._construction_context = "kEagerRuntime", tf._input_shapes = [#tf_type.shape<?x32x32x3>, #tf_type.shape<>, #tf_type.shape<>, #tf_type.shape<>, #tf_type.shape<>, #tf_type.shape<>, #tf_type.shape<>, #tf_type.shape<>, #tf_type.shape<>, #tf_type.shape<>, #tf_type.shape<>], tf.signature.is_stateful} {
    %0 = tf_executor.graph {
      %outputs, %control = tf_executor.island wraps "tf.StatefulPartitionedCall"(%arg0, %arg1, %arg2) {_collective_manager_ids = [], _read_only_resource_inputs = [1, 2], config = "", config_proto = "\0A\07\0A\03CPU\10\01\0A\07\0A\03GPU\10\022\07*\030,1J\008\01\82\01\00", device = "", executor_type = "", f = @__inference_conv2d_layer_call_and_return_conditional_losses_2390} : (tensor<?x32x32x3xf32>, tensor<!tf_type.resource>, tensor<!tf_type.resource>) -> tensor<?x?x?x?xf32> loc(#loc154)
      %outputs_0, %control_1 = tf_executor.island wraps "tf.PartitionedCall"(%outputs) {_collective_manager_ids = [], _read_only_resource_inputs = [], config = "", config_proto = "\0A\07\0A\03CPU\10\01\0A\07\0A\03GPU\10\022\07*\030,1J\008\01\82\01\00", device = "", executor_type = "", f = @__inference_max_pooling2d_layer_call_and_return_conditional_losses_2060} : (tensor<?x?x?x?xf32>) -> tensor<?x?x?x?xf32> loc(#loc155)
      %outputs_2, %control_3 = tf_executor.island wraps "tf.StatefulPartitionedCall"(%outputs_0, %arg3, %arg4) {_collective_manager_ids = [], _read_only_resource_inputs = [1, 2], config = "", config_proto = "\0A\07\0A\03CPU\10\01\0A\07\0A\03GPU\10\022\07*\030,1J\008\01\82\01\00", device = "", executor_type = "", f = @__inference_conv2d_1_layer_call_and_return_conditional_losses_2570} : (tensor<?x?x?x?xf32>, tensor<!tf_type.resource>, tensor<!tf_type.resource>) -> tensor<?x?x?x?xf32> loc(#loc156)
      %outputs_4, %control_5 = tf_executor.island wraps "tf.PartitionedCall"(%outputs_2) {_collective_manager_ids = [], _read_only_resource_inputs = [], config = "", config_proto = "\0A\07\0A\03CPU\10\01\0A\07\0A\03GPU\10\022\07*\030,1J\008\01\82\01\00", device = "", executor_type = "", f = @__inference_max_pooling2d_1_layer_call_and_return_conditional_losses_2180} : (tensor<?x?x?x?xf32>) -> tensor<?x?x?x?xf32> loc(#loc157)
      %outputs_6, %control_7 = tf_executor.island wraps "tf.StatefulPartitionedCall"(%outputs_4, %arg5, %arg6) {_collective_manager_ids = [], _read_only_resource_inputs = [1, 2], config = "", config_proto = "\0A\07\0A\03CPU\10\01\0A\07\0A\03GPU\10\022\07*\030,1J\008\01\82\01\00", device = "", executor_type = "", f = @__inference_conv2d_2_layer_call_and_return_conditional_losses_2750} : (tensor<?x?x?x?xf32>, tensor<!tf_type.resource>, tensor<!tf_type.resource>) -> tensor<?x?x?x?xf32> loc(#loc158)
      %outputs_8, %control_9 = tf_executor.island wraps "tf.PartitionedCall"(%outputs_6) {_collective_manager_ids = [], _read_only_resource_inputs = [], config = "", config_proto = "\0A\07\0A\03CPU\10\01\0A\07\0A\03GPU\10\022\07*\030,1J\008\01\82\01\00", device = "", executor_type = "", f = @__inference_flatten_layer_call_and_return_conditional_losses_2870} : (tensor<?x?x?x?xf32>) -> tensor<?x1024xf32> loc(#loc159)
      %outputs_10, %control_11 = tf_executor.island wraps "tf.StatefulPartitionedCall"(%outputs_8, %arg7, %arg8) {_collective_manager_ids = [], _read_only_resource_inputs = [1, 2], config = "", config_proto = "\0A\07\0A\03CPU\10\01\0A\07\0A\03GPU\10\022\07*\030,1J\008\01\82\01\00", device = "", executor_type = "", f = @__inference_dense_layer_call_and_return_conditional_losses_3000} : (tensor<?x1024xf32>, tensor<!tf_type.resource>, tensor<!tf_type.resource>) -> tensor<?x?xf32> loc(#loc160)
      %outputs_12, %control_13 = tf_executor.island wraps "tf.StatefulPartitionedCall"(%outputs_10, %arg9, %arg10) {_collective_manager_ids = [], _read_only_resource_inputs = [1, 2], config = "", config_proto = "\0A\07\0A\03CPU\10\01\0A\07\0A\03GPU\10\022\07*\030,1J\008\01\82\01\00", device = "", executor_type = "", f = @__inference_dense_1_layer_call_and_return_conditional_losses_3160} : (tensor<?x?xf32>, tensor<!tf_type.resource>, tensor<!tf_type.resource>) -> tensor<?x?xf32> loc(#loc161)
      %control_14 = tf_executor.island(%control, %control_3, %control_7, %control_11, %control_13) wraps "tf.NoOp"() {_acd_function_control_output = true, device = ""} : () -> () loc(#loc162)
      %outputs_15, %control_16 = tf_executor.island(%control_14) wraps "tf.Identity"(%outputs_12) {device = ""} : (tensor<?x?xf32>) -> tensor<?x?xf32> loc(#loc163)
      tf_executor.fetch %outputs_15, %control, %control_3, %control_7, %control_11, %control_13 : tensor<?x?xf32>, !tf_executor.control, !tf_executor.control, !tf_executor.control, !tf_executor.control, !tf_executor.control loc(#loc0)
    } loc(#loc0)
    return %0 : tensor<?x?xf32> loc(#loc0)
  } loc(#loc0)
  func.func private @__inference_sequential_layer_call_and_return_conditional_losses_5730(%arg0: tensor<?x32x32x3xf32> {tf._user_specified_name = "conv2d_input"} loc(unknown), %arg1: tensor<!tf_type.resource> loc(unknown), %arg2: tensor<!tf_type.resource> loc(unknown), %arg3: tensor<!tf_type.resource> loc(unknown), %arg4: tensor<!tf_type.resource> loc(unknown), %arg5: tensor<!tf_type.resource> loc(unknown), %arg6: tensor<!tf_type.resource> loc(unknown), %arg7: tensor<!tf_type.resource> loc(unknown), %arg8: tensor<!tf_type.resource> loc(unknown), %arg9: tensor<!tf_type.resource> loc(unknown), %arg10: tensor<!tf_type.resource> loc(unknown)) -> tensor<?x?xf32> attributes {tf._construction_context = "kEagerRuntime", tf._input_shapes = [#tf_type.shape<?x32x32x3>, #tf_type.shape<>, #tf_type.shape<>, #tf_type.shape<>, #tf_type.shape<>, #tf_type.shape<>, #tf_type.shape<>, #tf_type.shape<>, #tf_type.shape<>, #tf_type.shape<>, #tf_type.shape<>], tf.signature.is_stateful} {
    %0 = tf_executor.graph {
      %outputs, %control = tf_executor.island wraps "tf.StatefulPartitionedCall"(%arg0, %arg1, %arg2) {_collective_manager_ids = [], _read_only_resource_inputs = [1, 2], config = "", config_proto = "\0A\07\0A\03CPU\10\01\0A\07\0A\03GPU\10\022\07*\030,1J\008\01\82\01\00", device = "", executor_type = "", f = @__inference_conv2d_layer_call_and_return_conditional_losses_2390} : (tensor<?x32x32x3xf32>, tensor<!tf_type.resource>, tensor<!tf_type.resource>) -> tensor<?x?x?x?xf32> loc(#loc164)
      %outputs_0, %control_1 = tf_executor.island wraps "tf.PartitionedCall"(%outputs) {_collective_manager_ids = [], _read_only_resource_inputs = [], config = "", config_proto = "\0A\07\0A\03CPU\10\01\0A\07\0A\03GPU\10\022\07*\030,1J\008\01\82\01\00", device = "", executor_type = "", f = @__inference_max_pooling2d_layer_call_and_return_conditional_losses_2060} : (tensor<?x?x?x?xf32>) -> tensor<?x?x?x?xf32> loc(#loc165)
      %outputs_2, %control_3 = tf_executor.island wraps "tf.StatefulPartitionedCall"(%outputs_0, %arg3, %arg4) {_collective_manager_ids = [], _read_only_resource_inputs = [1, 2], config = "", config_proto = "\0A\07\0A\03CPU\10\01\0A\07\0A\03GPU\10\022\07*\030,1J\008\01\82\01\00", device = "", executor_type = "", f = @__inference_conv2d_1_layer_call_and_return_conditional_losses_2570} : (tensor<?x?x?x?xf32>, tensor<!tf_type.resource>, tensor<!tf_type.resource>) -> tensor<?x?x?x?xf32> loc(#loc166)
      %outputs_4, %control_5 = tf_executor.island wraps "tf.PartitionedCall"(%outputs_2) {_collective_manager_ids = [], _read_only_resource_inputs = [], config = "", config_proto = "\0A\07\0A\03CPU\10\01\0A\07\0A\03GPU\10\022\07*\030,1J\008\01\82\01\00", device = "", executor_type = "", f = @__inference_max_pooling2d_1_layer_call_and_return_conditional_losses_2180} : (tensor<?x?x?x?xf32>) -> tensor<?x?x?x?xf32> loc(#loc167)
      %outputs_6, %control_7 = tf_executor.island wraps "tf.StatefulPartitionedCall"(%outputs_4, %arg5, %arg6) {_collective_manager_ids = [], _read_only_resource_inputs = [1, 2], config = "", config_proto = "\0A\07\0A\03CPU\10\01\0A\07\0A\03GPU\10\022\07*\030,1J\008\01\82\01\00", device = "", executor_type = "", f = @__inference_conv2d_2_layer_call_and_return_conditional_losses_2750} : (tensor<?x?x?x?xf32>, tensor<!tf_type.resource>, tensor<!tf_type.resource>) -> tensor<?x?x?x?xf32> loc(#loc168)
      %outputs_8, %control_9 = tf_executor.island wraps "tf.PartitionedCall"(%outputs_6) {_collective_manager_ids = [], _read_only_resource_inputs = [], config = "", config_proto = "\0A\07\0A\03CPU\10\01\0A\07\0A\03GPU\10\022\07*\030,1J\008\01\82\01\00", device = "", executor_type = "", f = @__inference_flatten_layer_call_and_return_conditional_losses_2870} : (tensor<?x?x?x?xf32>) -> tensor<?x1024xf32> loc(#loc169)
      %outputs_10, %control_11 = tf_executor.island wraps "tf.StatefulPartitionedCall"(%outputs_8, %arg7, %arg8) {_collective_manager_ids = [], _read_only_resource_inputs = [1, 2], config = "", config_proto = "\0A\07\0A\03CPU\10\01\0A\07\0A\03GPU\10\022\07*\030,1J\008\01\82\01\00", device = "", executor_type = "", f = @__inference_dense_layer_call_and_return_conditional_losses_3000} : (tensor<?x1024xf32>, tensor<!tf_type.resource>, tensor<!tf_type.resource>) -> tensor<?x?xf32> loc(#loc170)
      %outputs_12, %control_13 = tf_executor.island wraps "tf.StatefulPartitionedCall"(%outputs_10, %arg9, %arg10) {_collective_manager_ids = [], _read_only_resource_inputs = [1, 2], config = "", config_proto = "\0A\07\0A\03CPU\10\01\0A\07\0A\03GPU\10\022\07*\030,1J\008\01\82\01\00", device = "", executor_type = "", f = @__inference_dense_1_layer_call_and_return_conditional_losses_3160} : (tensor<?x?xf32>, tensor<!tf_type.resource>, tensor<!tf_type.resource>) -> tensor<?x?xf32> loc(#loc171)
      %control_14 = tf_executor.island(%control, %control_3, %control_7, %control_11, %control_13) wraps "tf.NoOp"() {_acd_function_control_output = true, device = ""} : () -> () loc(#loc172)
      %outputs_15, %control_16 = tf_executor.island(%control_14) wraps "tf.Identity"(%outputs_12) {device = ""} : (tensor<?x?xf32>) -> tensor<?x?xf32> loc(#loc173)
      tf_executor.fetch %outputs_15, %control, %control_3, %control_7, %control_11, %control_13 : tensor<?x?xf32>, !tf_executor.control, !tf_executor.control, !tf_executor.control, !tf_executor.control, !tf_executor.control loc(#loc0)
    } loc(#loc0)
    return %0 : tensor<?x?xf32> loc(#loc0)
  } loc(#loc0)
  func.func private @__inference_sequential_layer_call_and_return_conditional_losses_6920(%arg0: tensor<?x32x32x3xf32> {tf._user_specified_name = "inputs"} loc(unknown), %arg1: tensor<!tf_type.resource> loc(unknown), %arg2: tensor<!tf_type.resource> loc(unknown), %arg3: tensor<!tf_type.resource> loc(unknown), %arg4: tensor<!tf_type.resource> loc(unknown), %arg5: tensor<!tf_type.resource> loc(unknown), %arg6: tensor<!tf_type.resource> loc(unknown), %arg7: tensor<!tf_type.resource> loc(unknown), %arg8: tensor<!tf_type.resource> loc(unknown), %arg9: tensor<!tf_type.resource> loc(unknown), %arg10: tensor<!tf_type.resource> loc(unknown)) -> tensor<?x10xf32> attributes {tf._construction_context = "kEagerRuntime", tf._input_shapes = [#tf_type.shape<?x32x32x3>, #tf_type.shape<>, #tf_type.shape<>, #tf_type.shape<>, #tf_type.shape<>, #tf_type.shape<>, #tf_type.shape<>, #tf_type.shape<>, #tf_type.shape<>, #tf_type.shape<>, #tf_type.shape<>], tf.signature.is_stateful} {
    %0 = tf_executor.graph {
      %outputs, %control = tf_executor.island wraps "tf.ReadVariableOp"(%arg4) {device = ""} : (tensor<!tf_type.resource>) -> tensor<64xf32> loc(#loc174)
      %outputs_0, %control_1 = tf_executor.island wraps "tf.ReadVariableOp"(%arg3) {device = ""} : (tensor<!tf_type.resource>) -> tensor<3x3x32x64xf32> loc(#loc175)
      %outputs_2, %control_3 = tf_executor.island wraps "tf.ReadVariableOp"(%arg6) {device = ""} : (tensor<!tf_type.resource>) -> tensor<64xf32> loc(#loc176)
      %outputs_4, %control_5 = tf_executor.island wraps "tf.ReadVariableOp"(%arg5) {device = ""} : (tensor<!tf_type.resource>) -> tensor<3x3x64x64xf32> loc(#loc177)
      %outputs_6, %control_7 = tf_executor.island wraps "tf.ReadVariableOp"(%arg2) {device = ""} : (tensor<!tf_type.resource>) -> tensor<32xf32> loc(#loc178)
      %outputs_8, %control_9 = tf_executor.island wraps "tf.ReadVariableOp"(%arg1) {device = ""} : (tensor<!tf_type.resource>) -> tensor<3x3x3x32xf32> loc(#loc179)
      %outputs_10, %control_11 = tf_executor.island wraps "tf.ReadVariableOp"(%arg10) {device = ""} : (tensor<!tf_type.resource>) -> tensor<10xf32> loc(#loc180)
      %outputs_12, %control_13 = tf_executor.island wraps "tf.ReadVariableOp"(%arg9) {device = ""} : (tensor<!tf_type.resource>) -> tensor<64x10xf32> loc(#loc181)
      %outputs_14, %control_15 = tf_executor.island wraps "tf.ReadVariableOp"(%arg8) {device = ""} : (tensor<!tf_type.resource>) -> tensor<64xf32> loc(#loc182)
      %outputs_16, %control_17 = tf_executor.island wraps "tf.ReadVariableOp"(%arg7) {device = ""} : (tensor<!tf_type.resource>) -> tensor<1024x64xf32> loc(#loc183)
      %control_18 = tf_executor.island(%control_9, %control_7, %control_1, %control, %control_5, %control_3, %control_17, %control_15, %control_13, %control_11) wraps "tf.NoOp"() {_acd_function_control_output = true, device = ""} : () -> () loc(#loc184)
      %outputs_19, %control_20 = tf_executor.island wraps "tf.Const"() {device = "", value = dense<[-1, 1024]> : tensor<2xi32>} : () -> tensor<2xi32> loc(#loc185)
      %outputs_21, %control_22 = tf_executor.island wraps "tf.Conv2D"(%arg0, %outputs_8) {data_format = "NHWC", device = "", dilations = [1, 1, 1, 1], explicit_paddings = [], padding = "VALID", strides = [1, 1, 1, 1], use_cudnn_on_gpu = true} : (tensor<?x32x32x3xf32>, tensor<3x3x3x32xf32>) -> tensor<?x30x30x32xf32> loc(#loc186)
      %outputs_23, %control_24 = tf_executor.island wraps "tf.BiasAdd"(%outputs_21, %outputs_6) {data_format = "NHWC", device = ""} : (tensor<?x30x30x32xf32>, tensor<32xf32>) -> tensor<?x30x30x32xf32> loc(#loc187)
      %outputs_25, %control_26 = tf_executor.island wraps "tf.Relu"(%outputs_23) {device = ""} : (tensor<?x30x30x32xf32>) -> tensor<?x30x30x32xf32> loc(#loc188)
      %outputs_27, %control_28 = tf_executor.island wraps "tf.MaxPool"(%outputs_25) {data_format = "NHWC", device = "", explicit_paddings = [], ksize = [1, 2, 2, 1], padding = "VALID", strides = [1, 2, 2, 1]} : (tensor<?x30x30x32xf32>) -> tensor<?x15x15x32xf32> loc(#loc189)
      %outputs_29, %control_30 = tf_executor.island wraps "tf.Conv2D"(%outputs_27, %outputs_0) {data_format = "NHWC", device = "", dilations = [1, 1, 1, 1], explicit_paddings = [], padding = "VALID", strides = [1, 1, 1, 1], use_cudnn_on_gpu = true} : (tensor<?x15x15x32xf32>, tensor<3x3x32x64xf32>) -> tensor<?x13x13x64xf32> loc(#loc190)
      %outputs_31, %control_32 = tf_executor.island wraps "tf.BiasAdd"(%outputs_29, %outputs) {data_format = "NHWC", device = ""} : (tensor<?x13x13x64xf32>, tensor<64xf32>) -> tensor<?x13x13x64xf32> loc(#loc191)
      %outputs_33, %control_34 = tf_executor.island wraps "tf.Relu"(%outputs_31) {device = ""} : (tensor<?x13x13x64xf32>) -> tensor<?x13x13x64xf32> loc(#loc192)
      %outputs_35, %control_36 = tf_executor.island wraps "tf.MaxPool"(%outputs_33) {data_format = "NHWC", device = "", explicit_paddings = [], ksize = [1, 2, 2, 1], padding = "VALID", strides = [1, 2, 2, 1]} : (tensor<?x13x13x64xf32>) -> tensor<?x6x6x64xf32> loc(#loc193)
      %outputs_37, %control_38 = tf_executor.island wraps "tf.Conv2D"(%outputs_35, %outputs_4) {data_format = "NHWC", device = "", dilations = [1, 1, 1, 1], explicit_paddings = [], padding = "VALID", strides = [1, 1, 1, 1], use_cudnn_on_gpu = true} : (tensor<?x6x6x64xf32>, tensor<3x3x64x64xf32>) -> tensor<?x4x4x64xf32> loc(#loc194)
      %outputs_39, %control_40 = tf_executor.island wraps "tf.BiasAdd"(%outputs_37, %outputs_2) {data_format = "NHWC", device = ""} : (tensor<?x4x4x64xf32>, tensor<64xf32>) -> tensor<?x4x4x64xf32> loc(#loc195)
      %outputs_41, %control_42 = tf_executor.island wraps "tf.Relu"(%outputs_39) {device = ""} : (tensor<?x4x4x64xf32>) -> tensor<?x4x4x64xf32> loc(#loc196)
      %outputs_43, %control_44 = tf_executor.island wraps "tf.Reshape"(%outputs_41, %outputs_19) {device = ""} : (tensor<?x4x4x64xf32>, tensor<2xi32>) -> tensor<?x1024xf32> loc(#loc197)
      %outputs_45, %control_46 = tf_executor.island wraps "tf.MatMul"(%outputs_43, %outputs_16) {device = "", transpose_a = false, transpose_b = false} : (tensor<?x1024xf32>, tensor<1024x64xf32>) -> tensor<?x64xf32> loc(#loc198)
      %outputs_47, %control_48 = tf_executor.island wraps "tf.BiasAdd"(%outputs_45, %outputs_14) {data_format = "NHWC", device = ""} : (tensor<?x64xf32>, tensor<64xf32>) -> tensor<?x64xf32> loc(#loc199)
      %outputs_49, %control_50 = tf_executor.island wraps "tf.Relu"(%outputs_47) {device = ""} : (tensor<?x64xf32>) -> tensor<?x64xf32> loc(#loc200)
      %outputs_51, %control_52 = tf_executor.island wraps "tf.MatMul"(%outputs_49, %outputs_12) {device = "", transpose_a = false, transpose_b = false} : (tensor<?x64xf32>, tensor<64x10xf32>) -> tensor<?x10xf32> loc(#loc201)
      %outputs_53, %control_54 = tf_executor.island wraps "tf.BiasAdd"(%outputs_51, %outputs_10) {data_format = "NHWC", device = ""} : (tensor<?x10xf32>, tensor<10xf32>) -> tensor<?x10xf32> loc(#loc202)
      %outputs_55, %control_56 = tf_executor.island(%control_18) wraps "tf.Identity"(%outputs_53) {device = ""} : (tensor<?x10xf32>) -> tensor<?x10xf32> loc(#loc203)
      tf_executor.fetch %outputs_55, %control_9, %control_7, %control_1, %control, %control_5, %control_3, %control_17, %control_15, %control_13, %control_11 : tensor<?x10xf32>, !tf_executor.control, !tf_executor.control, !tf_executor.control, !tf_executor.control, !tf_executor.control, !tf_executor.control, !tf_executor.control, !tf_executor.control, !tf_executor.control, !tf_executor.control loc(#loc0)
    } loc(#loc0)
    return %0 : tensor<?x10xf32> loc(#loc0)
  } loc(#loc0)
  func.func private @__inference_sequential_layer_call_and_return_conditional_losses_7340(%arg0: tensor<?x32x32x3xf32> {tf._user_specified_name = "inputs"} loc(unknown), %arg1: tensor<!tf_type.resource> loc(unknown), %arg2: tensor<!tf_type.resource> loc(unknown), %arg3: tensor<!tf_type.resource> loc(unknown), %arg4: tensor<!tf_type.resource> loc(unknown), %arg5: tensor<!tf_type.resource> loc(unknown), %arg6: tensor<!tf_type.resource> loc(unknown), %arg7: tensor<!tf_type.resource> loc(unknown), %arg8: tensor<!tf_type.resource> loc(unknown), %arg9: tensor<!tf_type.resource> loc(unknown), %arg10: tensor<!tf_type.resource> loc(unknown)) -> tensor<?x10xf32> attributes {tf._construction_context = "kEagerRuntime", tf._input_shapes = [#tf_type.shape<?x32x32x3>, #tf_type.shape<>, #tf_type.shape<>, #tf_type.shape<>, #tf_type.shape<>, #tf_type.shape<>, #tf_type.shape<>, #tf_type.shape<>, #tf_type.shape<>, #tf_type.shape<>, #tf_type.shape<>], tf.signature.is_stateful} {
    %0 = tf_executor.graph {
      %outputs, %control = tf_executor.island wraps "tf.ReadVariableOp"(%arg4) {device = ""} : (tensor<!tf_type.resource>) -> tensor<64xf32> loc(#loc204)
      %outputs_0, %control_1 = tf_executor.island wraps "tf.ReadVariableOp"(%arg3) {device = ""} : (tensor<!tf_type.resource>) -> tensor<3x3x32x64xf32> loc(#loc205)
      %outputs_2, %control_3 = tf_executor.island wraps "tf.ReadVariableOp"(%arg6) {device = ""} : (tensor<!tf_type.resource>) -> tensor<64xf32> loc(#loc206)
      %outputs_4, %control_5 = tf_executor.island wraps "tf.ReadVariableOp"(%arg5) {device = ""} : (tensor<!tf_type.resource>) -> tensor<3x3x64x64xf32> loc(#loc207)
      %outputs_6, %control_7 = tf_executor.island wraps "tf.ReadVariableOp"(%arg2) {device = ""} : (tensor<!tf_type.resource>) -> tensor<32xf32> loc(#loc208)
      %outputs_8, %control_9 = tf_executor.island wraps "tf.ReadVariableOp"(%arg1) {device = ""} : (tensor<!tf_type.resource>) -> tensor<3x3x3x32xf32> loc(#loc209)
      %outputs_10, %control_11 = tf_executor.island wraps "tf.ReadVariableOp"(%arg10) {device = ""} : (tensor<!tf_type.resource>) -> tensor<10xf32> loc(#loc210)
      %outputs_12, %control_13 = tf_executor.island wraps "tf.ReadVariableOp"(%arg9) {device = ""} : (tensor<!tf_type.resource>) -> tensor<64x10xf32> loc(#loc211)
      %outputs_14, %control_15 = tf_executor.island wraps "tf.ReadVariableOp"(%arg8) {device = ""} : (tensor<!tf_type.resource>) -> tensor<64xf32> loc(#loc212)
      %outputs_16, %control_17 = tf_executor.island wraps "tf.ReadVariableOp"(%arg7) {device = ""} : (tensor<!tf_type.resource>) -> tensor<1024x64xf32> loc(#loc213)
      %control_18 = tf_executor.island(%control_9, %control_7, %control_1, %control, %control_5, %control_3, %control_17, %control_15, %control_13, %control_11) wraps "tf.NoOp"() {_acd_function_control_output = true, device = ""} : () -> () loc(#loc214)
      %outputs_19, %control_20 = tf_executor.island wraps "tf.Const"() {device = "", value = dense<[-1, 1024]> : tensor<2xi32>} : () -> tensor<2xi32> loc(#loc215)
      %outputs_21, %control_22 = tf_executor.island wraps "tf.Conv2D"(%arg0, %outputs_8) {data_format = "NHWC", device = "", dilations = [1, 1, 1, 1], explicit_paddings = [], padding = "VALID", strides = [1, 1, 1, 1], use_cudnn_on_gpu = true} : (tensor<?x32x32x3xf32>, tensor<3x3x3x32xf32>) -> tensor<?x30x30x32xf32> loc(#loc216)
      %outputs_23, %control_24 = tf_executor.island wraps "tf.BiasAdd"(%outputs_21, %outputs_6) {data_format = "NHWC", device = ""} : (tensor<?x30x30x32xf32>, tensor<32xf32>) -> tensor<?x30x30x32xf32> loc(#loc217)
      %outputs_25, %control_26 = tf_executor.island wraps "tf.Relu"(%outputs_23) {device = ""} : (tensor<?x30x30x32xf32>) -> tensor<?x30x30x32xf32> loc(#loc218)
      %outputs_27, %control_28 = tf_executor.island wraps "tf.MaxPool"(%outputs_25) {data_format = "NHWC", device = "", explicit_paddings = [], ksize = [1, 2, 2, 1], padding = "VALID", strides = [1, 2, 2, 1]} : (tensor<?x30x30x32xf32>) -> tensor<?x15x15x32xf32> loc(#loc219)
      %outputs_29, %control_30 = tf_executor.island wraps "tf.Conv2D"(%outputs_27, %outputs_0) {data_format = "NHWC", device = "", dilations = [1, 1, 1, 1], explicit_paddings = [], padding = "VALID", strides = [1, 1, 1, 1], use_cudnn_on_gpu = true} : (tensor<?x15x15x32xf32>, tensor<3x3x32x64xf32>) -> tensor<?x13x13x64xf32> loc(#loc220)
      %outputs_31, %control_32 = tf_executor.island wraps "tf.BiasAdd"(%outputs_29, %outputs) {data_format = "NHWC", device = ""} : (tensor<?x13x13x64xf32>, tensor<64xf32>) -> tensor<?x13x13x64xf32> loc(#loc221)
      %outputs_33, %control_34 = tf_executor.island wraps "tf.Relu"(%outputs_31) {device = ""} : (tensor<?x13x13x64xf32>) -> tensor<?x13x13x64xf32> loc(#loc222)
      %outputs_35, %control_36 = tf_executor.island wraps "tf.MaxPool"(%outputs_33) {data_format = "NHWC", device = "", explicit_paddings = [], ksize = [1, 2, 2, 1], padding = "VALID", strides = [1, 2, 2, 1]} : (tensor<?x13x13x64xf32>) -> tensor<?x6x6x64xf32> loc(#loc223)
      %outputs_37, %control_38 = tf_executor.island wraps "tf.Conv2D"(%outputs_35, %outputs_4) {data_format = "NHWC", device = "", dilations = [1, 1, 1, 1], explicit_paddings = [], padding = "VALID", strides = [1, 1, 1, 1], use_cudnn_on_gpu = true} : (tensor<?x6x6x64xf32>, tensor<3x3x64x64xf32>) -> tensor<?x4x4x64xf32> loc(#loc224)
      %outputs_39, %control_40 = tf_executor.island wraps "tf.BiasAdd"(%outputs_37, %outputs_2) {data_format = "NHWC", device = ""} : (tensor<?x4x4x64xf32>, tensor<64xf32>) -> tensor<?x4x4x64xf32> loc(#loc225)
      %outputs_41, %control_42 = tf_executor.island wraps "tf.Relu"(%outputs_39) {device = ""} : (tensor<?x4x4x64xf32>) -> tensor<?x4x4x64xf32> loc(#loc226)
      %outputs_43, %control_44 = tf_executor.island wraps "tf.Reshape"(%outputs_41, %outputs_19) {device = ""} : (tensor<?x4x4x64xf32>, tensor<2xi32>) -> tensor<?x1024xf32> loc(#loc227)
      %outputs_45, %control_46 = tf_executor.island wraps "tf.MatMul"(%outputs_43, %outputs_16) {device = "", transpose_a = false, transpose_b = false} : (tensor<?x1024xf32>, tensor<1024x64xf32>) -> tensor<?x64xf32> loc(#loc228)
      %outputs_47, %control_48 = tf_executor.island wraps "tf.BiasAdd"(%outputs_45, %outputs_14) {data_format = "NHWC", device = ""} : (tensor<?x64xf32>, tensor<64xf32>) -> tensor<?x64xf32> loc(#loc229)
      %outputs_49, %control_50 = tf_executor.island wraps "tf.Relu"(%outputs_47) {device = ""} : (tensor<?x64xf32>) -> tensor<?x64xf32> loc(#loc230)
      %outputs_51, %control_52 = tf_executor.island wraps "tf.MatMul"(%outputs_49, %outputs_12) {device = "", transpose_a = false, transpose_b = false} : (tensor<?x64xf32>, tensor<64x10xf32>) -> tensor<?x10xf32> loc(#loc231)
      %outputs_53, %control_54 = tf_executor.island wraps "tf.BiasAdd"(%outputs_51, %outputs_10) {data_format = "NHWC", device = ""} : (tensor<?x10xf32>, tensor<10xf32>) -> tensor<?x10xf32> loc(#loc232)
      %outputs_55, %control_56 = tf_executor.island(%control_18) wraps "tf.Identity"(%outputs_53) {device = ""} : (tensor<?x10xf32>) -> tensor<?x10xf32> loc(#loc233)
      tf_executor.fetch %outputs_55, %control_9, %control_7, %control_1, %control, %control_5, %control_3, %control_17, %control_15, %control_13, %control_11 : tensor<?x10xf32>, !tf_executor.control, !tf_executor.control, !tf_executor.control, !tf_executor.control, !tf_executor.control, !tf_executor.control, !tf_executor.control, !tf_executor.control, !tf_executor.control, !tf_executor.control loc(#loc0)
    } loc(#loc0)
    return %0 : tensor<?x10xf32> loc(#loc0)
  } loc(#loc0)
  func.func private @__inference_sequential_layer_call_fn_3460(%arg0: tensor<?x32x32x3xf32> {tf._user_specified_name = "conv2d_input"} loc(unknown), %arg1: tensor<!tf_type.resource> loc(unknown), %arg2: tensor<!tf_type.resource> loc(unknown), %arg3: tensor<!tf_type.resource> loc(unknown), %arg4: tensor<!tf_type.resource> loc(unknown), %arg5: tensor<!tf_type.resource> loc(unknown), %arg6: tensor<!tf_type.resource> loc(unknown), %arg7: tensor<!tf_type.resource> loc(unknown), %arg8: tensor<!tf_type.resource> loc(unknown), %arg9: tensor<!tf_type.resource> loc(unknown), %arg10: tensor<!tf_type.resource> loc(unknown)) -> tensor<?x?xf32> attributes {tf._construction_context = "kEagerRuntime", tf._input_shapes = [#tf_type.shape<?x32x32x3>, #tf_type.shape<>, #tf_type.shape<>, #tf_type.shape<>, #tf_type.shape<>, #tf_type.shape<>, #tf_type.shape<>, #tf_type.shape<>, #tf_type.shape<>, #tf_type.shape<>, #tf_type.shape<>], tf.signature.is_stateful} {
    %0 = tf_executor.graph {
      %outputs, %control = tf_executor.island wraps "tf.StatefulPartitionedCall"(%arg0, %arg1, %arg2, %arg3, %arg4, %arg5, %arg6, %arg7, %arg8, %arg9, %arg10) {_collective_manager_ids = [], _read_only_resource_inputs = [1, 2, 3, 4, 5, 6, 7, 8, 9, 10], config = "", config_proto = "\0A\07\0A\03CPU\10\01\0A\07\0A\03GPU\10\022\07*\030,1J\008\01\82\01\00", device = "", executor_type = "", f = @__inference_sequential_layer_call_and_return_conditional_losses_3230} : (tensor<?x32x32x3xf32>, tensor<!tf_type.resource>, tensor<!tf_type.resource>, tensor<!tf_type.resource>, tensor<!tf_type.resource>, tensor<!tf_type.resource>, tensor<!tf_type.resource>, tensor<!tf_type.resource>, tensor<!tf_type.resource>, tensor<!tf_type.resource>, tensor<!tf_type.resource>) -> tensor<?x?xf32> loc(#loc234)
      %control_0 = tf_executor.island(%control) wraps "tf.NoOp"() {_acd_function_control_output = true, device = ""} : () -> () loc(#loc235)
      %outputs_1, %control_2 = tf_executor.island(%control_0) wraps "tf.Identity"(%outputs) {device = ""} : (tensor<?x?xf32>) -> tensor<?x?xf32> loc(#loc236)
      tf_executor.fetch %outputs_1, %control : tensor<?x?xf32>, !tf_executor.control loc(#loc0)
    } loc(#loc0)
    return %0 : tensor<?x?xf32> loc(#loc0)
  } loc(#loc0)
  func.func private @__inference_sequential_layer_call_fn_5090(%arg0: tensor<?x32x32x3xf32> {tf._user_specified_name = "conv2d_input"} loc(unknown), %arg1: tensor<!tf_type.resource> loc(unknown), %arg2: tensor<!tf_type.resource> loc(unknown), %arg3: tensor<!tf_type.resource> loc(unknown), %arg4: tensor<!tf_type.resource> loc(unknown), %arg5: tensor<!tf_type.resource> loc(unknown), %arg6: tensor<!tf_type.resource> loc(unknown), %arg7: tensor<!tf_type.resource> loc(unknown), %arg8: tensor<!tf_type.resource> loc(unknown), %arg9: tensor<!tf_type.resource> loc(unknown), %arg10: tensor<!tf_type.resource> loc(unknown)) -> tensor<?x?xf32> attributes {tf._construction_context = "kEagerRuntime", tf._input_shapes = [#tf_type.shape<?x32x32x3>, #tf_type.shape<>, #tf_type.shape<>, #tf_type.shape<>, #tf_type.shape<>, #tf_type.shape<>, #tf_type.shape<>, #tf_type.shape<>, #tf_type.shape<>, #tf_type.shape<>, #tf_type.shape<>], tf.signature.is_stateful} {
    %0 = tf_executor.graph {
      %outputs, %control = tf_executor.island wraps "tf.StatefulPartitionedCall"(%arg0, %arg1, %arg2, %arg3, %arg4, %arg5, %arg6, %arg7, %arg8, %arg9, %arg10) {_collective_manager_ids = [], _read_only_resource_inputs = [1, 2, 3, 4, 5, 6, 7, 8, 9, 10], config = "", config_proto = "\0A\07\0A\03CPU\10\01\0A\07\0A\03GPU\10\022\07*\030,1J\008\01\82\01\00", device = "", executor_type = "", f = @__inference_sequential_layer_call_and_return_conditional_losses_4610} : (tensor<?x32x32x3xf32>, tensor<!tf_type.resource>, tensor<!tf_type.resource>, tensor<!tf_type.resource>, tensor<!tf_type.resource>, tensor<!tf_type.resource>, tensor<!tf_type.resource>, tensor<!tf_type.resource>, tensor<!tf_type.resource>, tensor<!tf_type.resource>, tensor<!tf_type.resource>) -> tensor<?x?xf32> loc(#loc237)
      %control_0 = tf_executor.island(%control) wraps "tf.NoOp"() {_acd_function_control_output = true, device = ""} : () -> () loc(#loc238)
      %outputs_1, %control_2 = tf_executor.island(%control_0) wraps "tf.Identity"(%outputs) {device = ""} : (tensor<?x?xf32>) -> tensor<?x?xf32> loc(#loc239)
      tf_executor.fetch %outputs_1, %control : tensor<?x?xf32>, !tf_executor.control loc(#loc0)
    } loc(#loc0)
    return %0 : tensor<?x?xf32> loc(#loc0)
  } loc(#loc0)
  func.func private @__inference_sequential_layer_call_fn_6250(%arg0: tensor<?x32x32x3xf32> {tf._user_specified_name = "inputs"} loc(unknown), %arg1: tensor<!tf_type.resource> loc(unknown), %arg2: tensor<!tf_type.resource> loc(unknown), %arg3: tensor<!tf_type.resource> loc(unknown), %arg4: tensor<!tf_type.resource> loc(unknown), %arg5: tensor<!tf_type.resource> loc(unknown), %arg6: tensor<!tf_type.resource> loc(unknown), %arg7: tensor<!tf_type.resource> loc(unknown), %arg8: tensor<!tf_type.resource> loc(unknown), %arg9: tensor<!tf_type.resource> loc(unknown), %arg10: tensor<!tf_type.resource> loc(unknown)) -> tensor<?x?xf32> attributes {tf._construction_context = "kEagerRuntime", tf._input_shapes = [#tf_type.shape<?x32x32x3>, #tf_type.shape<>, #tf_type.shape<>, #tf_type.shape<>, #tf_type.shape<>, #tf_type.shape<>, #tf_type.shape<>, #tf_type.shape<>, #tf_type.shape<>, #tf_type.shape<>, #tf_type.shape<>], tf.signature.is_stateful} {
    %0 = tf_executor.graph {
      %outputs, %control = tf_executor.island wraps "tf.StatefulPartitionedCall"(%arg0, %arg1, %arg2, %arg3, %arg4, %arg5, %arg6, %arg7, %arg8, %arg9, %arg10) {_collective_manager_ids = [], _read_only_resource_inputs = [1, 2, 3, 4, 5, 6, 7, 8, 9, 10], config = "", config_proto = "\0A\07\0A\03CPU\10\01\0A\07\0A\03GPU\10\022\07*\030,1J\008\01\82\01\00", device = "", executor_type = "", f = @__inference_sequential_layer_call_and_return_conditional_losses_3230} : (tensor<?x32x32x3xf32>, tensor<!tf_type.resource>, tensor<!tf_type.resource>, tensor<!tf_type.resource>, tensor<!tf_type.resource>, tensor<!tf_type.resource>, tensor<!tf_type.resource>, tensor<!tf_type.resource>, tensor<!tf_type.resource>, tensor<!tf_type.resource>, tensor<!tf_type.resource>) -> tensor<?x?xf32> loc(#loc240)
      %control_0 = tf_executor.island(%control) wraps "tf.NoOp"() {_acd_function_control_output = true, device = ""} : () -> () loc(#loc241)
      %outputs_1, %control_2 = tf_executor.island(%control_0) wraps "tf.Identity"(%outputs) {device = ""} : (tensor<?x?xf32>) -> tensor<?x?xf32> loc(#loc242)
      tf_executor.fetch %outputs_1, %control : tensor<?x?xf32>, !tf_executor.control loc(#loc0)
    } loc(#loc0)
    return %0 : tensor<?x?xf32> loc(#loc0)
  } loc(#loc0)
  func.func private @__inference_sequential_layer_call_fn_6500(%arg0: tensor<?x32x32x3xf32> {tf._user_specified_name = "inputs"} loc(unknown), %arg1: tensor<!tf_type.resource> loc(unknown), %arg2: tensor<!tf_type.resource> loc(unknown), %arg3: tensor<!tf_type.resource> loc(unknown), %arg4: tensor<!tf_type.resource> loc(unknown), %arg5: tensor<!tf_type.resource> loc(unknown), %arg6: tensor<!tf_type.resource> loc(unknown), %arg7: tensor<!tf_type.resource> loc(unknown), %arg8: tensor<!tf_type.resource> loc(unknown), %arg9: tensor<!tf_type.resource> loc(unknown), %arg10: tensor<!tf_type.resource> loc(unknown)) -> tensor<?x?xf32> attributes {tf._construction_context = "kEagerRuntime", tf._input_shapes = [#tf_type.shape<?x32x32x3>, #tf_type.shape<>, #tf_type.shape<>, #tf_type.shape<>, #tf_type.shape<>, #tf_type.shape<>, #tf_type.shape<>, #tf_type.shape<>, #tf_type.shape<>, #tf_type.shape<>, #tf_type.shape<>], tf.signature.is_stateful} {
    %0 = tf_executor.graph {
      %outputs, %control = tf_executor.island wraps "tf.StatefulPartitionedCall"(%arg0, %arg1, %arg2, %arg3, %arg4, %arg5, %arg6, %arg7, %arg8, %arg9, %arg10) {_collective_manager_ids = [], _read_only_resource_inputs = [1, 2, 3, 4, 5, 6, 7, 8, 9, 10], config = "", config_proto = "\0A\07\0A\03CPU\10\01\0A\07\0A\03GPU\10\022\07*\030,1J\008\01\82\01\00", device = "", executor_type = "", f = @__inference_sequential_layer_call_and_return_conditional_losses_4610} : (tensor<?x32x32x3xf32>, tensor<!tf_type.resource>, tensor<!tf_type.resource>, tensor<!tf_type.resource>, tensor<!tf_type.resource>, tensor<!tf_type.resource>, tensor<!tf_type.resource>, tensor<!tf_type.resource>, tensor<!tf_type.resource>, tensor<!tf_type.resource>, tensor<!tf_type.resource>) -> tensor<?x?xf32> loc(#loc243)
      %control_0 = tf_executor.island(%control) wraps "tf.NoOp"() {_acd_function_control_output = true, device = ""} : () -> () loc(#loc244)
      %outputs_1, %control_2 = tf_executor.island(%control_0) wraps "tf.Identity"(%outputs) {device = ""} : (tensor<?x?xf32>) -> tensor<?x?xf32> loc(#loc245)
      tf_executor.fetch %outputs_1, %control : tensor<?x?xf32>, !tf_executor.control loc(#loc0)
    } loc(#loc0)
    return %0 : tensor<?x?xf32> loc(#loc0)
  } loc(#loc0)
} loc(#loc0)
#loc1 = loc(fused["Const:", "sequential/flatten/Const@__inference__wrapped_model_197"])
#loc2 = loc(fused["ReadVariableOp:", "sequential/conv2d_1/BiasAdd/ReadVariableOp@__inference__wrapped_model_197"])
#loc3 = loc(fused["ReadVariableOp:", "sequential/conv2d_1/Conv2D/ReadVariableOp@__inference__wrapped_model_197"])
#loc4 = loc(fused["ReadVariableOp:", "sequential/conv2d_2/BiasAdd/ReadVariableOp@__inference__wrapped_model_197"])
#loc5 = loc(fused["ReadVariableOp:", "sequential/conv2d_2/Conv2D/ReadVariableOp@__inference__wrapped_model_197"])
#loc6 = loc(fused["ReadVariableOp:", "sequential/conv2d/BiasAdd/ReadVariableOp@__inference__wrapped_model_197"])
#loc7 = loc(fused["ReadVariableOp:", "sequential/conv2d/Conv2D/ReadVariableOp@__inference__wrapped_model_197"])
#loc8 = loc(fused["Conv2D:", "sequential/conv2d/Conv2D@__inference__wrapped_model_197"])
#loc9 = loc(fused["BiasAdd:", "sequential/conv2d/BiasAdd@__inference__wrapped_model_197"])
#loc10 = loc(fused["Relu:", "sequential/conv2d/Relu@__inference__wrapped_model_197"])
#loc11 = loc(fused["MaxPool:", "sequential/max_pooling2d/MaxPool@__inference__wrapped_model_197"])
#loc12 = loc(fused["Conv2D:", "sequential/conv2d_1/Conv2D@__inference__wrapped_model_197"])
#loc13 = loc(fused["BiasAdd:", "sequential/conv2d_1/BiasAdd@__inference__wrapped_model_197"])
#loc14 = loc(fused["Relu:", "sequential/conv2d_1/Relu@__inference__wrapped_model_197"])
#loc15 = loc(fused["MaxPool:", "sequential/max_pooling2d_1/MaxPool@__inference__wrapped_model_197"])
#loc16 = loc(fused["Conv2D:", "sequential/conv2d_2/Conv2D@__inference__wrapped_model_197"])
#loc17 = loc(fused["BiasAdd:", "sequential/conv2d_2/BiasAdd@__inference__wrapped_model_197"])
#loc18 = loc(fused["Relu:", "sequential/conv2d_2/Relu@__inference__wrapped_model_197"])
#loc19 = loc(fused["Reshape:", "sequential/flatten/Reshape@__inference__wrapped_model_197"])
#loc20 = loc(fused["ReadVariableOp:", "sequential/dense_1/BiasAdd/ReadVariableOp@__inference__wrapped_model_197"])
#loc21 = loc(fused["ReadVariableOp:", "sequential/dense_1/MatMul/ReadVariableOp@__inference__wrapped_model_197"])
#loc22 = loc(fused["ReadVariableOp:", "sequential/dense/BiasAdd/ReadVariableOp@__inference__wrapped_model_197"])
#loc23 = loc(fused["ReadVariableOp:", "sequential/dense/MatMul/ReadVariableOp@__inference__wrapped_model_197"])
#loc24 = loc(fused["NoOp:", "NoOp@__inference__wrapped_model_197"])
#loc25 = loc(fused["MatMul:", "sequential/dense/MatMul@__inference__wrapped_model_197"])
#loc26 = loc(fused["BiasAdd:", "sequential/dense/BiasAdd@__inference__wrapped_model_197"])
#loc27 = loc(fused["Relu:", "sequential/dense/Relu@__inference__wrapped_model_197"])
#loc28 = loc(fused["MatMul:", "sequential/dense_1/MatMul@__inference__wrapped_model_197"])
#loc29 = loc(fused["BiasAdd:", "sequential/dense_1/BiasAdd@__inference__wrapped_model_197"])
#loc30 = loc(fused["Identity:", "Identity@__inference__wrapped_model_197"])
#loc31 = loc(fused["ReadVariableOp:", "BiasAdd/ReadVariableOp@__inference_conv2d_1_layer_call_and_return_conditional_losses_257"])
#loc32 = loc(fused["ReadVariableOp:", "Conv2D/ReadVariableOp@__inference_conv2d_1_layer_call_and_return_conditional_losses_257"])
#loc33 = loc(fused["NoOp:", "NoOp@__inference_conv2d_1_layer_call_and_return_conditional_losses_257"])
#loc34 = loc(fused["Conv2D:", "Conv2D@__inference_conv2d_1_layer_call_and_return_conditional_losses_257"])
#loc35 = loc(fused["BiasAdd:", "BiasAdd@__inference_conv2d_1_layer_call_and_return_conditional_losses_257"])
#loc36 = loc(fused["Relu:", "Relu@__inference_conv2d_1_layer_call_and_return_conditional_losses_257"])
#loc37 = loc(fused["Identity:", "Identity@__inference_conv2d_1_layer_call_and_return_conditional_losses_257"])
#loc38 = loc(fused["ReadVariableOp:", "BiasAdd/ReadVariableOp@__inference_conv2d_1_layer_call_and_return_conditional_losses_784"])
#loc39 = loc(fused["ReadVariableOp:", "Conv2D/ReadVariableOp@__inference_conv2d_1_layer_call_and_return_conditional_losses_784"])
#loc40 = loc(fused["NoOp:", "NoOp@__inference_conv2d_1_layer_call_and_return_conditional_losses_784"])
#loc41 = loc(fused["Conv2D:", "Conv2D@__inference_conv2d_1_layer_call_and_return_conditional_losses_784"])
#loc42 = loc(fused["BiasAdd:", "BiasAdd@__inference_conv2d_1_layer_call_and_return_conditional_losses_784"])
#loc43 = loc(fused["Relu:", "Relu@__inference_conv2d_1_layer_call_and_return_conditional_losses_784"])
#loc44 = loc(fused["Identity:", "Identity@__inference_conv2d_1_layer_call_and_return_conditional_losses_784"])
#loc45 = loc(fused["StatefulPartitionedCall:", "StatefulPartitionedCall@__inference_conv2d_1_layer_call_fn_773"])
#loc46 = loc(fused["NoOp:", "NoOp@__inference_conv2d_1_layer_call_fn_773"])
#loc47 = loc(fused["Identity:", "Identity@__inference_conv2d_1_layer_call_fn_773"])
#loc48 = loc(fused["ReadVariableOp:", "BiasAdd/ReadVariableOp@__inference_conv2d_2_layer_call_and_return_conditional_losses_275"])
#loc49 = loc(fused["ReadVariableOp:", "Conv2D/ReadVariableOp@__inference_conv2d_2_layer_call_and_return_conditional_losses_275"])
#loc50 = loc(fused["NoOp:", "NoOp@__inference_conv2d_2_layer_call_and_return_conditional_losses_275"])
#loc51 = loc(fused["Conv2D:", "Conv2D@__inference_conv2d_2_layer_call_and_return_conditional_losses_275"])
#loc52 = loc(fused["BiasAdd:", "BiasAdd@__inference_conv2d_2_layer_call_and_return_conditional_losses_275"])
#loc53 = loc(fused["Relu:", "Relu@__inference_conv2d_2_layer_call_and_return_conditional_losses_275"])
#loc54 = loc(fused["Identity:", "Identity@__inference_conv2d_2_layer_call_and_return_conditional_losses_275"])
#loc55 = loc(fused["ReadVariableOp:", "BiasAdd/ReadVariableOp@__inference_conv2d_2_layer_call_and_return_conditional_losses_814"])
#loc56 = loc(fused["ReadVariableOp:", "Conv2D/ReadVariableOp@__inference_conv2d_2_layer_call_and_return_conditional_losses_814"])
#loc57 = loc(fused["NoOp:", "NoOp@__inference_conv2d_2_layer_call_and_return_conditional_losses_814"])
#loc58 = loc(fused["Conv2D:", "Conv2D@__inference_conv2d_2_layer_call_and_return_conditional_losses_814"])
#loc59 = loc(fused["BiasAdd:", "BiasAdd@__inference_conv2d_2_layer_call_and_return_conditional_losses_814"])
#loc60 = loc(fused["Relu:", "Relu@__inference_conv2d_2_layer_call_and_return_conditional_losses_814"])
#loc61 = loc(fused["Identity:", "Identity@__inference_conv2d_2_layer_call_and_return_conditional_losses_814"])
#loc62 = loc(fused["StatefulPartitionedCall:", "StatefulPartitionedCall@__inference_conv2d_2_layer_call_fn_803"])
#loc63 = loc(fused["NoOp:", "NoOp@__inference_conv2d_2_layer_call_fn_803"])
#loc64 = loc(fused["Identity:", "Identity@__inference_conv2d_2_layer_call_fn_803"])
#loc65 = loc(fused["ReadVariableOp:", "BiasAdd/ReadVariableOp@__inference_conv2d_layer_call_and_return_conditional_losses_239"])
#loc66 = loc(fused["ReadVariableOp:", "Conv2D/ReadVariableOp@__inference_conv2d_layer_call_and_return_conditional_losses_239"])
#loc67 = loc(fused["NoOp:", "NoOp@__inference_conv2d_layer_call_and_return_conditional_losses_239"])
#loc68 = loc(fused["Conv2D:", "Conv2D@__inference_conv2d_layer_call_and_return_conditional_losses_239"])
#loc69 = loc(fused["BiasAdd:", "BiasAdd@__inference_conv2d_layer_call_and_return_conditional_losses_239"])
#loc70 = loc(fused["Relu:", "Relu@__inference_conv2d_layer_call_and_return_conditional_losses_239"])
#loc71 = loc(fused["Identity:", "Identity@__inference_conv2d_layer_call_and_return_conditional_losses_239"])
#loc72 = loc(fused["ReadVariableOp:", "BiasAdd/ReadVariableOp@__inference_conv2d_layer_call_and_return_conditional_losses_754"])
#loc73 = loc(fused["ReadVariableOp:", "Conv2D/ReadVariableOp@__inference_conv2d_layer_call_and_return_conditional_losses_754"])
#loc74 = loc(fused["NoOp:", "NoOp@__inference_conv2d_layer_call_and_return_conditional_losses_754"])
#loc75 = loc(fused["Conv2D:", "Conv2D@__inference_conv2d_layer_call_and_return_conditional_losses_754"])
#loc76 = loc(fused["BiasAdd:", "BiasAdd@__inference_conv2d_layer_call_and_return_conditional_losses_754"])
#loc77 = loc(fused["Relu:", "Relu@__inference_conv2d_layer_call_and_return_conditional_losses_754"])
#loc78 = loc(fused["Identity:", "Identity@__inference_conv2d_layer_call_and_return_conditional_losses_754"])
#loc79 = loc(fused["StatefulPartitionedCall:", "StatefulPartitionedCall@__inference_conv2d_layer_call_fn_743"])
#loc80 = loc(fused["NoOp:", "NoOp@__inference_conv2d_layer_call_fn_743"])
#loc81 = loc(fused["Identity:", "Identity@__inference_conv2d_layer_call_fn_743"])
#loc82 = loc(fused["ReadVariableOp:", "BiasAdd/ReadVariableOp@__inference_dense_1_layer_call_and_return_conditional_losses_316"])
#loc83 = loc(fused["ReadVariableOp:", "MatMul/ReadVariableOp@__inference_dense_1_layer_call_and_return_conditional_losses_316"])
#loc84 = loc(fused["MatMul:", "MatMul@__inference_dense_1_layer_call_and_return_conditional_losses_316"])
#loc85 = loc(fused["BiasAdd:", "BiasAdd@__inference_dense_1_layer_call_and_return_conditional_losses_316"])
#loc86 = loc(fused["NoOp:", "NoOp@__inference_dense_1_layer_call_and_return_conditional_losses_316"])
#loc87 = loc(fused["Identity:", "Identity@__inference_dense_1_layer_call_and_return_conditional_losses_316"])
#loc88 = loc(fused["ReadVariableOp:", "BiasAdd/ReadVariableOp@__inference_dense_1_layer_call_and_return_conditional_losses_864"])
#loc89 = loc(fused["ReadVariableOp:", "MatMul/ReadVariableOp@__inference_dense_1_layer_call_and_return_conditional_losses_864"])
#loc90 = loc(fused["MatMul:", "MatMul@__inference_dense_1_layer_call_and_return_conditional_losses_864"])
#loc91 = loc(fused["BiasAdd:", "BiasAdd@__inference_dense_1_layer_call_and_return_conditional_losses_864"])
#loc92 = loc(fused["NoOp:", "NoOp@__inference_dense_1_layer_call_and_return_conditional_losses_864"])
#loc93 = loc(fused["Identity:", "Identity@__inference_dense_1_layer_call_and_return_conditional_losses_864"])
#loc94 = loc(fused["StatefulPartitionedCall:", "StatefulPartitionedCall@__inference_dense_1_layer_call_fn_854"])
#loc95 = loc(fused["NoOp:", "NoOp@__inference_dense_1_layer_call_fn_854"])
#loc96 = loc(fused["Identity:", "Identity@__inference_dense_1_layer_call_fn_854"])
#loc97 = loc(fused["ReadVariableOp:", "BiasAdd/ReadVariableOp@__inference_dense_layer_call_and_return_conditional_losses_300"])
#loc98 = loc(fused["ReadVariableOp:", "MatMul/ReadVariableOp@__inference_dense_layer_call_and_return_conditional_losses_300"])
#loc99 = loc(fused["MatMul:", "MatMul@__inference_dense_layer_call_and_return_conditional_losses_300"])
#loc100 = loc(fused["BiasAdd:", "BiasAdd@__inference_dense_layer_call_and_return_conditional_losses_300"])
#loc101 = loc(fused["Relu:", "Relu@__inference_dense_layer_call_and_return_conditional_losses_300"])
#loc102 = loc(fused["NoOp:", "NoOp@__inference_dense_layer_call_and_return_conditional_losses_300"])
#loc103 = loc(fused["Identity:", "Identity@__inference_dense_layer_call_and_return_conditional_losses_300"])
#loc104 = loc(fused["ReadVariableOp:", "BiasAdd/ReadVariableOp@__inference_dense_layer_call_and_return_conditional_losses_845"])
#loc105 = loc(fused["ReadVariableOp:", "MatMul/ReadVariableOp@__inference_dense_layer_call_and_return_conditional_losses_845"])
#loc106 = loc(fused["MatMul:", "MatMul@__inference_dense_layer_call_and_return_conditional_losses_845"])
#loc107 = loc(fused["BiasAdd:", "BiasAdd@__inference_dense_layer_call_and_return_conditional_losses_845"])
#loc108 = loc(fused["Relu:", "Relu@__inference_dense_layer_call_and_return_conditional_losses_845"])
#loc109 = loc(fused["NoOp:", "NoOp@__inference_dense_layer_call_and_return_conditional_losses_845"])
#loc110 = loc(fused["Identity:", "Identity@__inference_dense_layer_call_and_return_conditional_losses_845"])
#loc111 = loc(fused["StatefulPartitionedCall:", "StatefulPartitionedCall@__inference_dense_layer_call_fn_834"])
#loc112 = loc(fused["NoOp:", "NoOp@__inference_dense_layer_call_fn_834"])
#loc113 = loc(fused["Identity:", "Identity@__inference_dense_layer_call_fn_834"])
#loc114 = loc(fused["Const:", "Const@__inference_flatten_layer_call_and_return_conditional_losses_287"])
#loc115 = loc(fused["Reshape:", "Reshape@__inference_flatten_layer_call_and_return_conditional_losses_287"])
#loc116 = loc(fused["Identity:", "Identity@__inference_flatten_layer_call_and_return_conditional_losses_287"])
#loc117 = loc(fused["Const:", "Const@__inference_flatten_layer_call_and_return_conditional_losses_825"])
#loc118 = loc(fused["Reshape:", "Reshape@__inference_flatten_layer_call_and_return_conditional_losses_825"])
#loc119 = loc(fused["Identity:", "Identity@__inference_flatten_layer_call_and_return_conditional_losses_825"])
#loc120 = loc(fused["PartitionedCall:", "PartitionedCall@__inference_flatten_layer_call_fn_819"])
#loc121 = loc(fused["Identity:", "Identity@__inference_flatten_layer_call_fn_819"])
#loc122 = loc(fused["MaxPool:", "MaxPool@__inference_max_pooling2d_1_layer_call_and_return_conditional_losses_218"])
#loc123 = loc(fused["Identity:", "Identity@__inference_max_pooling2d_1_layer_call_and_return_conditional_losses_218"])
#loc124 = loc(fused["MaxPool:", "MaxPool@__inference_max_pooling2d_1_layer_call_and_return_conditional_losses_794"])
#loc125 = loc(fused["Identity:", "Identity@__inference_max_pooling2d_1_layer_call_and_return_conditional_losses_794"])
#loc126 = loc(fused["PartitionedCall:", "PartitionedCall@__inference_max_pooling2d_1_layer_call_fn_789"])
#loc127 = loc(fused["Identity:", "Identity@__inference_max_pooling2d_1_layer_call_fn_789"])
#loc128 = loc(fused["MaxPool:", "MaxPool@__inference_max_pooling2d_layer_call_and_return_conditional_losses_206"])
#loc129 = loc(fused["Identity:", "Identity@__inference_max_pooling2d_layer_call_and_return_conditional_losses_206"])
#loc130 = loc(fused["MaxPool:", "MaxPool@__inference_max_pooling2d_layer_call_and_return_conditional_losses_764"])
#loc131 = loc(fused["Identity:", "Identity@__inference_max_pooling2d_layer_call_and_return_conditional_losses_764"])
#loc132 = loc(fused["PartitionedCall:", "PartitionedCall@__inference_max_pooling2d_layer_call_fn_759"])
#loc133 = loc(fused["Identity:", "Identity@__inference_max_pooling2d_layer_call_fn_759"])
#loc134 = loc(fused["StatefulPartitionedCall:", "conv2d/StatefulPartitionedCall@__inference_sequential_layer_call_and_return_conditional_losses_323"])
#loc135 = loc(fused["PartitionedCall:", "max_pooling2d/PartitionedCall@__inference_sequential_layer_call_and_return_conditional_losses_323"])
#loc136 = loc(fused["StatefulPartitionedCall:", "conv2d_1/StatefulPartitionedCall@__inference_sequential_layer_call_and_return_conditional_losses_323"])
#loc137 = loc(fused["PartitionedCall:", "max_pooling2d_1/PartitionedCall@__inference_sequential_layer_call_and_return_conditional_losses_323"])
#loc138 = loc(fused["StatefulPartitionedCall:", "conv2d_2/StatefulPartitionedCall@__inference_sequential_layer_call_and_return_conditional_losses_323"])
#loc139 = loc(fused["PartitionedCall:", "flatten/PartitionedCall@__inference_sequential_layer_call_and_return_conditional_losses_323"])
#loc140 = loc(fused["StatefulPartitionedCall:", "dense/StatefulPartitionedCall@__inference_sequential_layer_call_and_return_conditional_losses_323"])
#loc141 = loc(fused["StatefulPartitionedCall:", "dense_1/StatefulPartitionedCall@__inference_sequential_layer_call_and_return_conditional_losses_323"])
#loc142 = loc(fused["NoOp:", "NoOp@__inference_sequential_layer_call_and_return_conditional_losses_323"])
#loc143 = loc(fused["Identity:", "Identity@__inference_sequential_layer_call_and_return_conditional_losses_323"])
#loc144 = loc(fused["StatefulPartitionedCall:", "conv2d/StatefulPartitionedCall@__inference_sequential_layer_call_and_return_conditional_losses_461"])
#loc145 = loc(fused["PartitionedCall:", "max_pooling2d/PartitionedCall@__inference_sequential_layer_call_and_return_conditional_losses_461"])
#loc146 = loc(fused["StatefulPartitionedCall:", "conv2d_1/StatefulPartitionedCall@__inference_sequential_layer_call_and_return_conditional_losses_461"])
#loc147 = loc(fused["PartitionedCall:", "max_pooling2d_1/PartitionedCall@__inference_sequential_layer_call_and_return_conditional_losses_461"])
#loc148 = loc(fused["StatefulPartitionedCall:", "conv2d_2/StatefulPartitionedCall@__inference_sequential_layer_call_and_return_conditional_losses_461"])
#loc149 = loc(fused["PartitionedCall:", "flatten/PartitionedCall@__inference_sequential_layer_call_and_return_conditional_losses_461"])
#loc150 = loc(fused["StatefulPartitionedCall:", "dense/StatefulPartitionedCall@__inference_sequential_layer_call_and_return_conditional_losses_461"])
#loc151 = loc(fused["StatefulPartitionedCall:", "dense_1/StatefulPartitionedCall@__inference_sequential_layer_call_and_return_conditional_losses_461"])
#loc152 = loc(fused["NoOp:", "NoOp@__inference_sequential_layer_call_and_return_conditional_losses_461"])
#loc153 = loc(fused["Identity:", "Identity@__inference_sequential_layer_call_and_return_conditional_losses_461"])
#loc154 = loc(fused["StatefulPartitionedCall:", "conv2d/StatefulPartitionedCall@__inference_sequential_layer_call_and_return_conditional_losses_541"])
#loc155 = loc(fused["PartitionedCall:", "max_pooling2d/PartitionedCall@__inference_sequential_layer_call_and_return_conditional_losses_541"])
#loc156 = loc(fused["StatefulPartitionedCall:", "conv2d_1/StatefulPartitionedCall@__inference_sequential_layer_call_and_return_conditional_losses_541"])
#loc157 = loc(fused["PartitionedCall:", "max_pooling2d_1/PartitionedCall@__inference_sequential_layer_call_and_return_conditional_losses_541"])
#loc158 = loc(fused["StatefulPartitionedCall:", "conv2d_2/StatefulPartitionedCall@__inference_sequential_layer_call_and_return_conditional_losses_541"])
#loc159 = loc(fused["PartitionedCall:", "flatten/PartitionedCall@__inference_sequential_layer_call_and_return_conditional_losses_541"])
#loc160 = loc(fused["StatefulPartitionedCall:", "dense/StatefulPartitionedCall@__inference_sequential_layer_call_and_return_conditional_losses_541"])
#loc161 = loc(fused["StatefulPartitionedCall:", "dense_1/StatefulPartitionedCall@__inference_sequential_layer_call_and_return_conditional_losses_541"])
#loc162 = loc(fused["NoOp:", "NoOp@__inference_sequential_layer_call_and_return_conditional_losses_541"])
#loc163 = loc(fused["Identity:", "Identity@__inference_sequential_layer_call_and_return_conditional_losses_541"])
#loc164 = loc(fused["StatefulPartitionedCall:", "conv2d/StatefulPartitionedCall@__inference_sequential_layer_call_and_return_conditional_losses_573"])
#loc165 = loc(fused["PartitionedCall:", "max_pooling2d/PartitionedCall@__inference_sequential_layer_call_and_return_conditional_losses_573"])
#loc166 = loc(fused["StatefulPartitionedCall:", "conv2d_1/StatefulPartitionedCall@__inference_sequential_layer_call_and_return_conditional_losses_573"])
#loc167 = loc(fused["PartitionedCall:", "max_pooling2d_1/PartitionedCall@__inference_sequential_layer_call_and_return_conditional_losses_573"])
#loc168 = loc(fused["StatefulPartitionedCall:", "conv2d_2/StatefulPartitionedCall@__inference_sequential_layer_call_and_return_conditional_losses_573"])
#loc169 = loc(fused["PartitionedCall:", "flatten/PartitionedCall@__inference_sequential_layer_call_and_return_conditional_losses_573"])
#loc170 = loc(fused["StatefulPartitionedCall:", "dense/StatefulPartitionedCall@__inference_sequential_layer_call_and_return_conditional_losses_573"])
#loc171 = loc(fused["StatefulPartitionedCall:", "dense_1/StatefulPartitionedCall@__inference_sequential_layer_call_and_return_conditional_losses_573"])
#loc172 = loc(fused["NoOp:", "NoOp@__inference_sequential_layer_call_and_return_conditional_losses_573"])
#loc173 = loc(fused["Identity:", "Identity@__inference_sequential_layer_call_and_return_conditional_losses_573"])
#loc174 = loc(fused["ReadVariableOp:", "conv2d_1/BiasAdd/ReadVariableOp@__inference_sequential_layer_call_and_return_conditional_losses_692"])
#loc175 = loc(fused["ReadVariableOp:", "conv2d_1/Conv2D/ReadVariableOp@__inference_sequential_layer_call_and_return_conditional_losses_692"])
#loc176 = loc(fused["ReadVariableOp:", "conv2d_2/BiasAdd/ReadVariableOp@__inference_sequential_layer_call_and_return_conditional_losses_692"])
#loc177 = loc(fused["ReadVariableOp:", "conv2d_2/Conv2D/ReadVariableOp@__inference_sequential_layer_call_and_return_conditional_losses_692"])
#loc178 = loc(fused["ReadVariableOp:", "conv2d/BiasAdd/ReadVariableOp@__inference_sequential_layer_call_and_return_conditional_losses_692"])
#loc179 = loc(fused["ReadVariableOp:", "conv2d/Conv2D/ReadVariableOp@__inference_sequential_layer_call_and_return_conditional_losses_692"])
#loc180 = loc(fused["ReadVariableOp:", "dense_1/BiasAdd/ReadVariableOp@__inference_sequential_layer_call_and_return_conditional_losses_692"])
#loc181 = loc(fused["ReadVariableOp:", "dense_1/MatMul/ReadVariableOp@__inference_sequential_layer_call_and_return_conditional_losses_692"])
#loc182 = loc(fused["ReadVariableOp:", "dense/BiasAdd/ReadVariableOp@__inference_sequential_layer_call_and_return_conditional_losses_692"])
#loc183 = loc(fused["ReadVariableOp:", "dense/MatMul/ReadVariableOp@__inference_sequential_layer_call_and_return_conditional_losses_692"])
#loc184 = loc(fused["NoOp:", "NoOp@__inference_sequential_layer_call_and_return_conditional_losses_692"])
#loc185 = loc(fused["Const:", "flatten/Const@__inference_sequential_layer_call_and_return_conditional_losses_692"])
#loc186 = loc(fused["Conv2D:", "conv2d/Conv2D@__inference_sequential_layer_call_and_return_conditional_losses_692"])
#loc187 = loc(fused["BiasAdd:", "conv2d/BiasAdd@__inference_sequential_layer_call_and_return_conditional_losses_692"])
#loc188 = loc(fused["Relu:", "conv2d/Relu@__inference_sequential_layer_call_and_return_conditional_losses_692"])
#loc189 = loc(fused["MaxPool:", "max_pooling2d/MaxPool@__inference_sequential_layer_call_and_return_conditional_losses_692"])
#loc190 = loc(fused["Conv2D:", "conv2d_1/Conv2D@__inference_sequential_layer_call_and_return_conditional_losses_692"])
#loc191 = loc(fused["BiasAdd:", "conv2d_1/BiasAdd@__inference_sequential_layer_call_and_return_conditional_losses_692"])
#loc192 = loc(fused["Relu:", "conv2d_1/Relu@__inference_sequential_layer_call_and_return_conditional_losses_692"])
#loc193 = loc(fused["MaxPool:", "max_pooling2d_1/MaxPool@__inference_sequential_layer_call_and_return_conditional_losses_692"])
#loc194 = loc(fused["Conv2D:", "conv2d_2/Conv2D@__inference_sequential_layer_call_and_return_conditional_losses_692"])
#loc195 = loc(fused["BiasAdd:", "conv2d_2/BiasAdd@__inference_sequential_layer_call_and_return_conditional_losses_692"])
#loc196 = loc(fused["Relu:", "conv2d_2/Relu@__inference_sequential_layer_call_and_return_conditional_losses_692"])
#loc197 = loc(fused["Reshape:", "flatten/Reshape@__inference_sequential_layer_call_and_return_conditional_losses_692"])
#loc198 = loc(fused["MatMul:", "dense/MatMul@__inference_sequential_layer_call_and_return_conditional_losses_692"])
#loc199 = loc(fused["BiasAdd:", "dense/BiasAdd@__inference_sequential_layer_call_and_return_conditional_losses_692"])
#loc200 = loc(fused["Relu:", "dense/Relu@__inference_sequential_layer_call_and_return_conditional_losses_692"])
#loc201 = loc(fused["MatMul:", "dense_1/MatMul@__inference_sequential_layer_call_and_return_conditional_losses_692"])
#loc202 = loc(fused["BiasAdd:", "dense_1/BiasAdd@__inference_sequential_layer_call_and_return_conditional_losses_692"])
#loc203 = loc(fused["Identity:", "Identity@__inference_sequential_layer_call_and_return_conditional_losses_692"])
#loc204 = loc(fused["ReadVariableOp:", "conv2d_1/BiasAdd/ReadVariableOp@__inference_sequential_layer_call_and_return_conditional_losses_734"])
#loc205 = loc(fused["ReadVariableOp:", "conv2d_1/Conv2D/ReadVariableOp@__inference_sequential_layer_call_and_return_conditional_losses_734"])
#loc206 = loc(fused["ReadVariableOp:", "conv2d_2/BiasAdd/ReadVariableOp@__inference_sequential_layer_call_and_return_conditional_losses_734"])
#loc207 = loc(fused["ReadVariableOp:", "conv2d_2/Conv2D/ReadVariableOp@__inference_sequential_layer_call_and_return_conditional_losses_734"])
#loc208 = loc(fused["ReadVariableOp:", "conv2d/BiasAdd/ReadVariableOp@__inference_sequential_layer_call_and_return_conditional_losses_734"])
#loc209 = loc(fused["ReadVariableOp:", "conv2d/Conv2D/ReadVariableOp@__inference_sequential_layer_call_and_return_conditional_losses_734"])
#loc210 = loc(fused["ReadVariableOp:", "dense_1/BiasAdd/ReadVariableOp@__inference_sequential_layer_call_and_return_conditional_losses_734"])
#loc211 = loc(fused["ReadVariableOp:", "dense_1/MatMul/ReadVariableOp@__inference_sequential_layer_call_and_return_conditional_losses_734"])
#loc212 = loc(fused["ReadVariableOp:", "dense/BiasAdd/ReadVariableOp@__inference_sequential_layer_call_and_return_conditional_losses_734"])
#loc213 = loc(fused["ReadVariableOp:", "dense/MatMul/ReadVariableOp@__inference_sequential_layer_call_and_return_conditional_losses_734"])
#loc214 = loc(fused["NoOp:", "NoOp@__inference_sequential_layer_call_and_return_conditional_losses_734"])
#loc215 = loc(fused["Const:", "flatten/Const@__inference_sequential_layer_call_and_return_conditional_losses_734"])
#loc216 = loc(fused["Conv2D:", "conv2d/Conv2D@__inference_sequential_layer_call_and_return_conditional_losses_734"])
#loc217 = loc(fused["BiasAdd:", "conv2d/BiasAdd@__inference_sequential_layer_call_and_return_conditional_losses_734"])
#loc218 = loc(fused["Relu:", "conv2d/Relu@__inference_sequential_layer_call_and_return_conditional_losses_734"])
#loc219 = loc(fused["MaxPool:", "max_pooling2d/MaxPool@__inference_sequential_layer_call_and_return_conditional_losses_734"])
#loc220 = loc(fused["Conv2D:", "conv2d_1/Conv2D@__inference_sequential_layer_call_and_return_conditional_losses_734"])
#loc221 = loc(fused["BiasAdd:", "conv2d_1/BiasAdd@__inference_sequential_layer_call_and_return_conditional_losses_734"])
#loc222 = loc(fused["Relu:", "conv2d_1/Relu@__inference_sequential_layer_call_and_return_conditional_losses_734"])
#loc223 = loc(fused["MaxPool:", "max_pooling2d_1/MaxPool@__inference_sequential_layer_call_and_return_conditional_losses_734"])
#loc224 = loc(fused["Conv2D:", "conv2d_2/Conv2D@__inference_sequential_layer_call_and_return_conditional_losses_734"])
#loc225 = loc(fused["BiasAdd:", "conv2d_2/BiasAdd@__inference_sequential_layer_call_and_return_conditional_losses_734"])
#loc226 = loc(fused["Relu:", "conv2d_2/Relu@__inference_sequential_layer_call_and_return_conditional_losses_734"])
#loc227 = loc(fused["Reshape:", "flatten/Reshape@__inference_sequential_layer_call_and_return_conditional_losses_734"])
#loc228 = loc(fused["MatMul:", "dense/MatMul@__inference_sequential_layer_call_and_return_conditional_losses_734"])
#loc229 = loc(fused["BiasAdd:", "dense/BiasAdd@__inference_sequential_layer_call_and_return_conditional_losses_734"])
#loc230 = loc(fused["Relu:", "dense/Relu@__inference_sequential_layer_call_and_return_conditional_losses_734"])
#loc231 = loc(fused["MatMul:", "dense_1/MatMul@__inference_sequential_layer_call_and_return_conditional_losses_734"])
#loc232 = loc(fused["BiasAdd:", "dense_1/BiasAdd@__inference_sequential_layer_call_and_return_conditional_losses_734"])
#loc233 = loc(fused["Identity:", "Identity@__inference_sequential_layer_call_and_return_conditional_losses_734"])
#loc234 = loc(fused["StatefulPartitionedCall:", "StatefulPartitionedCall@__inference_sequential_layer_call_fn_346"])
#loc235 = loc(fused["NoOp:", "NoOp@__inference_sequential_layer_call_fn_346"])
#loc236 = loc(fused["Identity:", "Identity@__inference_sequential_layer_call_fn_346"])
#loc237 = loc(fused["StatefulPartitionedCall:", "StatefulPartitionedCall@__inference_sequential_layer_call_fn_509"])
#loc238 = loc(fused["NoOp:", "NoOp@__inference_sequential_layer_call_fn_509"])
#loc239 = loc(fused["Identity:", "Identity@__inference_sequential_layer_call_fn_509"])
#loc240 = loc(fused["StatefulPartitionedCall:", "StatefulPartitionedCall@__inference_sequential_layer_call_fn_625"])
#loc241 = loc(fused["NoOp:", "NoOp@__inference_sequential_layer_call_fn_625"])
#loc242 = loc(fused["Identity:", "Identity@__inference_sequential_layer_call_fn_625"])
#loc243 = loc(fused["StatefulPartitionedCall:", "StatefulPartitionedCall@__inference_sequential_layer_call_fn_650"])
#loc244 = loc(fused["NoOp:", "NoOp@__inference_sequential_layer_call_fn_650"])
#loc245 = loc(fused["Identity:", "Identity@__inference_sequential_layer_call_fn_650"])
